Code/saved_models/dummy-urnd9j8r.pt (torch, 787831 bytes, 15 tensors)

weight f4 [94768, 2]
0.20349492 -0.007658881 -0.11971302 0.97665024 -0.36079937 1.9753113 1.1496975 0.19874981
-0.9502755 0.10301335 0.8032662 0.4465926 -0.37314522 0.6473965 0.124020696 -0.3532235
0.5159055 0.047507778 0.5771964 0.5057194 0.8417248 -1.250706 1.3104916 0.030756421
-0.36534968 1.3416843 1.5067487 0.48984677 0.9653067 0.73757106 -2.2242186 -0.4857211
-0.2763816 -0.5990537 0.01937093 -0.8054339 0.5766473 -0.048282016 -0.08469774 -1.4353977
0.40579984 -0.56831276 0.27268127 -1.3339238 0.11144754 -0.3067659 -0.8734948 -0.6224364
-0.13108352 -0.1847991 -0.9203939 0.77003425 -0.15878744 -0.42653745 1.4773581 -0.08497665
-1.7297689 -0.49427933 1.28601 1.4864136 -1.2122947 1.1616669 -0.09367648 1.2284548
1.3604649 2.812563 -0.14627458 -0.6178105 -0.12586527 -0.03371063 -0.6442485 -0.013780556
-2.4826639 -0.15721652 0.16405952 -1.0668075 0.705904 0.29145008 -2.4607453 0.1683527
-0.5698557 -1.5164202 1.1353648 -0.67155474 -0.7609666 2.0785828 -0.12665974 -0.015981406
0.30725408 1.4214947 0.73997694 -1.4266404 -0.2711673 -0.65996504 0.7775939 -0.72044295
-1.8373569 -1.2466862 1.6977404 1.0067089 0.15957955 -1.5416433 -0.79812616 1.2358712
-1.1792752 -0.8754002 -0.00778273 0.53995067 1.906153 1.2675854 1.1811303 -0.5800043
0.5755184 0.36179253 0.16411334 -0.64411104 -0.08932486 0.47707257 -0.18493083 -0.14373156
-1.0024416 -2.9396157 -1.4850715 -0.4138451 0.05598374 0.6229083 -1.0061712 -2.0728686
-0.4535101 -0.9468854 -0.77796066 -0.8972461 -0.1851595 0.19032626 -1.1511008 0.31065786
0.68536156 -0.3297861 0.081754796 -1.3737025 1.6208225 -1.9549506 0.12320307 1.0467991
1.6451454 -1.1095315 1.0073535 2.2815566 -0.38737762 1.5547754 -0.133041 -0.66470623
0.31232062 1.0323678 -0.5578237 0.9421849 -1.6327171 -2.0401335 0.8066642 -0.10019482
1.3577677 -1.9564935 -0.5757326 0.2912908 -0.07230691 -0.033102762 0.23698303 -0.23653859
-0.9352842 -0.09781516 -0.93074054 0.040665288 0.09489428 0.37060216 0.3128086 -0.38802662
-0.66351265 2.4012938 -0.7386408 1.3018565 -0.7990488 0.30375987 -0.42516097 0.6584884
0.16239387 0.14387114 0.3524016 1.1570379 -0.050380807 0.25993362 -0.98005414 0.14781229
-0.5873657 -0.5068456 -0.9779378 0.7258851 -1.1606477 -1.6698464 -0.13520704 0.78326213
-0.6419895 -0.25666413 -0.57109845 0.24575002 0.95129555 -0.6088288 -1.4620029 0.12590426
-0.36600024 -1.6657081 -0.067482136 -1.8932817 0.065206274 -1.503444 -3.2403119 0.36791554
0.40665343 1.5669707 1.0524151 0.8732053 0.9362296 0.29358527 0.30556837 -0.59609634
-0.8249461 0.6128092 1.0093417 -0.29801098 0.040278338 0.23928078 0.47490337 1.8673462
0.5257395 -0.25750855 -0.7106544 -1.6623168 1.3210592 -2.1309347 -1.0292009 0.1400179
0.4523175 0.57526886 -1.1964394 -0.60645443 -0.05063112 1.3879737 0.7296421 -1.320826
0.8204962 -0.5215967 0.2716777 -0.2490013 0.8128131 2.5544477 -1.8070625 -2.2585993
00000000: f960 503e 5af7 fabb 1a2c f5bd c005 7a3f
00000010: b2ba b8be 00d7 fc3f 4a29 933f 1285 4b3e
00000020: 4145 73bf aaf8 d23d dba2 4d3f c9a7 e43e
00000030: e40c bfbe c7bb 253f 90fe fd3d b6d9 b4be
00000040: 6212 043f 8497 423d 25c3 133f d476 013f
00000050: 477b 573f 2217 a0bf 30be a73f e4f4 fb3c
00000060: 1d0f bbbe 50bc ab3f 24dd c03f 32cd fa3e
00000070: 571e 773f 75d1 3c3f 9959 0ec0 70b0 f8be
00000080: e481 8dbe 955b 19bf c9af 9e3c eb30 4ebf
00000090: 289f 133f 5dc3 45bd 0276 adbd 1dbb b7bf
000000a0: ffc4 cf3e f27c 11bf e19c 8b3e 04be aabf
000000b0: 9c3e e43d 6c10 9dbe 5b9d 5fbf fe57 1fbf
000000c0: c23a 06be fa3b 3dbe ef9e 6bbf f720 453f
000000d0: 2d99 22be 1e63 dabe 121a bd3f 3d08 aebd
000000e0: 1169 ddbf 2e12 fdbe fa9b a43f cd42 be3f
000000f0: 792c 9bbf 80b1 943f 74d9 bfbd 023e 9d3f
00000100: b723 ae3f 0801 3440 01c9 15be d428 1ebf
00000110: d3e2 00be 2814 0abd 78ed 24bf d7c7 61bc
00000120: f7e3 1ec0 5efd 20be 38ff 273e 268d 88bf
00000130: 20b6 343f f238 953e da7c 1dc0 a664 2c3e
00000140: 10e2 11bf 0f1a c2bf a253 913f 03eb 2bbf
00000150: b5ce 42bf 8007 0540 17b3 01be 70eb 82bc
00000160: 6850 9d3e 8af3 b53f 216f 3d3f 279c b6bf
00000170: 71d6 8abe 78f3 28bf 6510 473f f36e 38bf
00000180: 832e ebbf 6a93 9fbf 8f4f d93f d6db 803f
00000190: d268 233e 9154 c5bf ff51 4cbf 0731 9e3f
000001a0: 7df2 96bf 3a1a 60bf 4506 ffbb 353a 0a3f
000001b0: d2fc f33f 3d40 a23f 472f 973f 297b 14bf
000001c0: 2d55 133f df3c b93e 540d 283e 76e4 24bf
000001d0: f4ef b6bd db42 f43e 825e 3dbe 5e2e 13be
000001e0: 0250 80bf aa22 3cc0 d316 bebf 81e3 d3be
000001f0: 354f 653d eb76 1f3f 38ca 80bf e1a9 04c0
00000200: 7a32 e8be 1567 72bf 6e28 47bf ecb1 65bf
00000210: 749a 3dbe e3e4 423e 4557 93bf 8c0e 9f3e
00000220: db73 2f3f b9d9 a8be 0f6f a73d 7cd5 afbf
00000230: 1d77 cf3f d23b fabf e451 fc3d 83fd 853f
00000240: 2094 d23f 2105 8ebf f6f0 803f 0605 1240
00000250: 5c56 c6be e102 c73f e63b 08be 302a 2abf
00000260: 7de8 9f3e a124 843f 89cd 0ebf 0833 713f
00000270: e0fc d0bf 8c91 02c0 8c81 4e3f f132 cdbd
00000280: 55cb ad3f 616e fabf 3663 13bf 1124 953e
00000290: a515 94bd c396 07bd aeab 723e 2c37 72be
000002a0: c96e 6fbf 5153 c8bd 0345 6ebf a590 263d
000002b0: ef57 c23d 91bf bd3e 7328 a03e 6dab c6be
000002c0: f7db 29bf ccae 1940 9017 3dbf 3ca3 a63f
000002d0: 768e 4cbf 6a86 9b3e b3ae d9be b292 283f
000002e0: 944a 263e f552 133e fc6d b43e d119 943f
000002f0: 1b5c 4ebd 0516 853e d4e4 7abf 1b5c 173e
00000300: 995d 16bf a2c0 01bf 225a 7abf 9bd3 393f
00000310: 1b90 94bf 87bd d5bf b773 0abe de83 483f
00000320: 6d59 24bf 7b69 83be 8233 12bf e5a5 7b3e
00000330: 1b88 733f 34dc 1bbf e922 bbbf 0ced 003e
00000340: 6264 bbbe ec35 d5bf 1334 8abd 0e57 f2bf
00000350: de8a 853d da70 c0bf 4561 4fc0 6d5f bc3e
00000360: e134 d03e 7f92 c83f 8ab5 863f 628a 5f3f
00000370: beac 6f3f cf50 963e 7573 9c3e c599 18bf
00000380: ab2f 53bf 10e1 1c3f 1c32 813f e594 98be
00000390: e6fa 243d 0506 753e 8926 f33e 3305 ef3f
000003a0: dd96 063f 29d8 83be 72ed 35bf ccc6 d4bf
000003b0: 7818 a93f 3c61 08c0 dbbc 83bf da60 0f3e
000003c0: 2996 e73e d244 133f ed24 99bf 9940 1bbf
000003d0: 9462 4fbd 1fa9 b13f d3c9 3a3f d410 a9bf
000003e0: 0a0c 523f 5d87 05bf 5719 8b3e 32fa 7ebe
000003f0: 8514 503f 127c 2340 d34d e7bf e48c 10c0

weight f4 [64, 2]
-0.2612277 -0.79732794 0.6685917 0.13067026 0.8519213 0.472304 0.63806295 0.13398153
0.647221 0.3606998 0.5775555 -0.6981694 -0.06231963 0.4601459 0.22162269 -0.5498864
0.9350885 0.41569713 0.8152637 0.45482987 -0.2799216 -0.83113635 -0.28641206 -0.65467185
-0.9325379 0.2622983 -0.24585737 -0.7402907 0.5942874 -0.689753 0.5218985 0.21049741
0.2607748 -0.55008787 0.33336353 -0.5868576 -0.29332092 -0.88392246 -0.036399882 -0.6135423
-0.3839507 -1.0007439 -0.99844915 0.29642344 -0.04326857 -0.73453104 0.61287785 0.11559775
0.36142316 0.6935481 -0.77968407 0.20002274 0.19822979 -0.5854154 -0.2723427 -0.7935959
-0.13405935 -0.44617656 -1.0820161 0.28400242 0.29949018 -0.7124578 -0.18752979 -0.5896764
-0.891882 -0.025947683 -0.03961711 0.70302206 0.5365611 -0.022626558 -0.7608088 0.41311082
0.08224775 0.59992766 -0.061670713 -0.7691392 -0.8713691 0.29870608 0.82571715 0.23624149
-0.99792486 -0.43250176 -0.4098458 0.5419968 0.14008462 -0.5760525 0.2531586 0.49609163
-0.061358705 0.612234 -0.21510565 -0.68437904 -0.806768 0.008701601 0.58608764 -0.81549805
0.46945235 -0.7353564 0.6728632 0.112237655 0.35802177 0.48951176 0.27350393 0.68067855
0.30111977 0.43765834 0.5462129 0.09136446 -0.019479435 0.7331507 0.16995072 0.67426693
0.5762155 -0.30309728 0.7087695 0.11493055 -0.3421875 0.48398226 -0.27492285 -0.8115687
0.829819 0.06306947 0.44786483 -0.5680266 0.81621766 0.3218596 0.2833588 0.7661476
00000000: a3bf 85be af1d 4cbf d328 2b3f 6dce 053e
00000010: 8417 5a3f d4d1 f13e 1858 233f 7432 093e
00000020: 47b0 253f a5ad b83e adda 133f 3bbb 32bf
00000030: de42 7fbd 3e98 eb3e 0ff1 623e 5bc5 0cbf
00000040: f661 6f3f 41d6 d43e 1fb5 503f 76df e83e
00000050: e251 8fbe 5ac5 54bf 9aa4 92be 9398 27bf
00000060: ceba 6ebf f64b 863e 09c2 7bbe b183 3dbf
00000070: 3823 183f a793 30bf 249b 053f a28c 573e
00000080: 4684 853e 8fd2 0cbf a0ae aa3e 4d3c 16bf
00000090: 292e 96be be48 62bf 0b18 15bd 1c11 1dbf
000000a0: 3095 c4be 6018 80bf 5d9a 7fbf d0c4 973e
000000b0: 623a 31bd 3a0a 3cbf 90e5 1c3f 83be ec3d
000000c0: 750c b93e 5e8c 313f 6099 47bf c3d2 4c3e
000000d0: c0fc 4a3e c9dd 15bf 8170 8bbe 1a29 4bbf
000000e0: db46 09be 4171 e4be 817f 8abf c468 913e
000000f0: c756 993e a263 36bf cf07 40be 08f5 16bf
00000100: 6152 64bf 3c90 d4bc 8d45 22bd 41f9 333f
00000110: 115c 093f 555b b9bc 5ec4 42bf 4383 d33e
00000120: 8271 a83d dc94 193f 6e9a 7cbd 4ee6 44bf
00000130: 0c12 5fbf 01f0 983e 3362 533f 4ae9 713e
00000140: 0178 7fbf df70 ddbe 4fd7 d1be 4dc0 0a3f
00000150: 5872 0f3e 2d78 13bf 019e 813e b9ff fd3e
00000160: 4453 7bbd 5ebb 1c3f a844 5cbe 7733 2fbf
00000170: 5988 4ebf 2991 0e3c d709 163f 7bc4 50bf
00000180: 0f5c f03e 5140 3cbf c340 2c3f dbdc e53d
00000190: a14e b73e 49a1 fa3e b508 8c3e f340 2e3f
000001a0: 5f2c 9a3e c114 e03e 9cd4 0b3f 4a1d bb3d
000001b0: 5693 9fbc c4af 3b3f 9007 2e3e c29c 2c3f
000001c0: dc82 133f 912f 9bbe eb71 353f b560 eb3d
000001d0: 3333 afbe 86cc f73e b0c2 8cbe f7c2 4fbf
000001e0: 056f 543f 912a 813d 8a4e e53e 316a 11bf
000001f0: a4f3 503f c8ca a43e 6814 913e 4022 443f

bias f4 [64]
-0.5803286 -0.04835681 0.27256396 -0.5235852 0.5892102 -0.56208766 0.46980992 -0.6449618
0.6879509 0.490048 0.13508572 -0.39675605 0.2726947 0.44630465 -0.349909 0.08745737
0.3826629 0.2264083 0.16343223 0.039898302 0.6143591 -0.6018343 -0.30300683 -0.5979394
0.2094023 -0.20823765 0.61878586 -0.004482901 0.21672839 0.53386736 -0.5876164 0.12644659
-0.678358 0.25258794 0.40309435 0.18554503 -0.56063807 -0.22950204 -0.15068288 -0.5451973
-0.46314386 -0.19248834 -0.42247248 0.22574416 -0.2468961 0.21581447 0.44716594 0.12083178
0.447815 0.15834476 -0.21390073 -0.08999207 -0.5742921 0.67202586 0.35071597 -0.40725583
0.21461266 0.50648624 -0.002514698 -0.5421958 0.22904555 -0.2748345 0.04960153 0.50464475
00000000: 6a90 14bf ca11 46bd 818d 8b3e ae09 06bf
00000010: 7bd6 163f fae4 0fbf ed8a f03e 371c 25bf
00000020: 8d1d 303f 92e7 fa3e e953 0a3e 9c23 cbbe
00000030: a49e 8b3e 0b82 e43e 4627 b3be d91c b33d
00000040: 64ec c33e 94d7 673e c75a 273e 676c 233d
00000050: a346 1d3f d011 1abf b623 9bbe 8e12 19bf
00000060: 8e6d 563e 403c 55be c068 1e3f 4de5 92bb
00000070: 0cee 5d3e 88ab 083f 076e 16bf 377b 013e
00000080: dfa8 2dbf 3553 813e 6262 ce3e 84ff 3d3e
00000090: fa85 0fbf 9502 6bbe 9d4c 1abe 0d92 0bbf
000000a0: 3121 edbe aa1b 45be 504e d8be 7a29 673e
000000b0: 55d2 7cbe 78fe 5c3e eff2 e43e a776 f73d
000000c0: 0248 e53e 2125 223e cb08 5bbe c34d b8bd
000000d0: cf04 13bf e309 2c3f 0b91 b33e d683 d0be
000000e0: 6cc3 5b3e 15a9 013f a2cd 24bb 58cd 0abf
000000f0: eb8a 6a3e 1cb7 8cbe f92a 4b3d 6630 013f

weight f4 [64, 64]
0.87848157 -0.13487175 -0.08129561 -0.065190874 -0.10487102 0.08970036 -0.10595574 0.15810078
-0.23279732 -0.12966846 0.56122655 0.5923446 0.47121283 0.79435194 0.021299835 -0.2097199
0.1426416 0.16715437 0.91453385 0.32469466 0.73363614 0.3372635 0.24024938 -0.15752666
-0.19631165 0.27944404 0.13032846 0.60471034 0.41005665 0.5636855 0.18242548 0.4917586
0.6453888 -0.2031179 0.009093458 0.28176865 -0.164274 0.35675487 0.70965827 -0.0063141217
0.5054751 -0.21507666 0.117883265 -0.089770585 -0.14552991 0.65245825 0.67447937 -0.042497445
-0.032286208 -0.035022732 0.40433374 -0.14058942 -0.07842186 -0.08613284 -0.06876902 -0.12834755
0.011216298 -0.06602673 0.12059236 0.700429 -0.0941935 0.030629054 -0.0052648894 -0.037250485
-0.29813516 -0.24521416 -0.16211331 -0.22308463 -0.20517519 -0.07303924 -0.2126857 -0.23813027
-0.13877113 -0.22433376 -0.26652142 -0.28084508 -0.16590151 -0.24152258 -0.23397449 -0.17586523
-0.4289529 -0.17486906 -0.41724607 -0.15060642 -0.32618046 -0.26745564 -0.06256149 -0.30838433
-0.17738488 -0.19223437 -0.23492059 -0.18643792 -0.250987 -0.45214012 -0.1221755 -0.17073734
-0.17362957 -0.0519153 -0.25841948 -0.08089562 -0.270962 -0.19149886 -0.42467618 -0.24506836
-0.08795799 -0.15616377 -0.11552606 -0.06400307 -0.31160456 -0.19775513 -0.37118804 -0.1332863
-0.18388702 -0.3896607 0.036351006 -0.14863588 -0.17751604 -0.23602113 -0.10687283 -0.37971902
-0.23981124 -0.13771245 -0.1456472 -0.3745695 -0.1737429 -0.47993502 -0.12692215 -0.004211344
0.066872105 0.11370644 0.058529433 0.014981078 -0.029305937 0.0035392935 0.40276852 0.18418506
0.20418355 0.06849438 0.104356736 0.15421721 0.6649849 0.1666501 0.15014222 0.059474055
0.10674383 0.1335172 0.14557445 0.23224437 0.24942745 0.73404413 0.19842586 0.03913199
0.22104764 0.9102201 0.06873605 0.29473898 0.18803418 0.7609402 0.17822935 0.24174449
0.3402024 0.35292166 -0.027193936 0.95047 0.28275117 0.023997147 0.83029586 -0.11823364
0.33864662 0.51548153 0.17103665 0.24963452 0.49498314 0.13771622 0.43733135 0.23248374
0.20725238 -0.095881335 0.009704871 0.26093817 0.025644852 -0.1549791 0.34687063 -0.051391356
0.070470035 -0.0071808393 0.8589483 0.15436627 0.07766402 -0.0070766346 0.06323009 0.3823251
0.6938963 0.66727924 0.3372078 0.7189709 0.35407025 0.53019553 0.1669903 0.27638716
0.38675842 0.23759927 0.5193146 0.5812175 -0.04127126 0.5164697 0.5622097 0.5164292
0.6631035 0.5025722 0.6342888 0.49076462 0.5271745 -0.11381861 0.29863665 0.5260338
0.29517403 -0.17559898 0.3191586 0.6175568 0.20133811 0.1457304 0.4415408 0.31336692
0.25060725 0.1126956 0.492661 0.0039358083 -0.09290485 0.3967738 0.07173926 0.59109455
0.21417613 0.4244614 0.3405899 -0.3412451 0.088699326 0.35477528 0.24409108 0.39416066
0.39536208 0.5429437 0.058978748 0.14103578 0.3047935 0.62453645 -0.013300483 0.24641818
0.43475413 0.6698579 -0.31479818 0.50837964 0.6038311 0.5848914 0.18819645 -0.14632896
00000000: 2be4 603f d21b 0abe 507e a6bd cb82 85bd
00000010: 9ec6 d6bd d3b4 b73d 53ff d8bd 2ce5 213e
00000020: 6c62 6ebe cfc7 04be 8bac 0f3f e5a3 173f
00000030: cf42 f13e a65a 4b3f fe7c ae3c d0c0 56be
00000040: a410 123e 842a 2b3e e41e 6a3f 613e a63e
00000050: 94cf 3b3f cdad ac3e ef03 763e ab4e 21be
00000060: ec05 49be 4a13 8f3e d374 053e 4cce 1a3f
00000070: f2f2 d13e b14d 103f bfcd 3a3e c9c7 fb3e
00000080: 3338 253f 24fe 4fbe bafc 143c fb43 903e
00000090: 7237 28be 93a8 b63e 2aac 353f b1e6 cebb
000000a0: d166 013f 0e3d 5cbe c86c f13d a4d9 b7bd
000000b0: cb05 15be 8107 273f aeaa 2c3f cd11 2ebd
000000c0: 8b3e 04bd ff73 0fbd d504 cf3e acf6 0fbe
000000d0: a49b a0bd 6a66 b0bd c6d6 8cbd 8a6d 03be
000000e0: 90c4 373c 0639 87bd 21f9 f63d 514f 333f
000000f0: 86e8 c0bd c8e9 fa3c 1885 acbb f793 18bd
00000100: 2ca5 98be 6c19 7bbe 0801 26be 4c70 64be
00000110: 7219 52be 9995 95bd 48ca 59be 6cd8 73be
00000120: 051a 0ebe c0b7 65be 7f75 88be edca 8fbe
00000130: 16e2 29be b251 77be 0297 6fbe 0416 34be
00000140: b79f dbbe e010 33be 47a1 d5be 9238 1abe
00000150: 2001 a7be f2ef 88be 3d20 80bd 8de4 9dbe
00000160: 62a4 35be 16d9 44be 068f 70be 95e9 3ebe
00000170: 5e81 80be e97e e7be 2637 fabd c5d5 2ebe
00000180: f3cb 31be 23a5 54bd 8f4f 84be 9aac a5bd
00000190: 88bb 8abe 4718 44be 286f d9be 33f3 7abe
000001a0: 5223 b4bd 65e9 1fbe ed98 ecbd 0b14 83bd
000001b0: a28a 9fbe 5280 4abe 5c0c bebe 347c 08be
000001c0: e14c 3cbe 9b81 c7be cbe4 143d 0134 18be
000001d0: c4c6 35be 86af 71be 24e0 dabd 886a c2be
000001e0: 1491 75be 7e04 0dbe 8a24 15be 93c7 bfbe
000001f0: a9e9 31be 0bba f5be e1f7 01be 50ff 89bb
00000200: 3ef4 883d ecde e83d 8fbc 6f3d 3273 753c
00000210: 0113 f0bc 7ef3 673b ad37 ce3e 029b 3c3e
00000220: 7e15 513e c846 8c3d fcb8 d53d 1eeb 1d3e
00000230: 733c 2a3f 53a6 2a3e e2be 193e 119b 733d
00000240: 829c da3d bcb8 083e 7811 153e 78d1 6d3e
00000250: e969 7f3e 51ea 3b3f 2630 4b3e de48 203d
00000260: 505a 623e 2f04 693f 7cc5 8c3d 07e8 963e
00000270: 088c 403e facc 423f c181 363e de8b 773e
00000280: 022f ae3e 26b2 b43e d1c5 debc 0052 733f
00000290: c3c4 903e aa95 c43c 458e 543f 7b24 f2bd
000002a0: 1763 ad3e 99f6 033f 3b24 2f3e 31a0 7f3e
000002b0: 6e6e fd3e 7b05 0d3e e5e9 df3e 3810 6e3e
000002c0: f839 543e 6f5d c4bd 2e01 1f3c b099 853e
000002d0: 2715 d23c d7b2 1ebe 0799 b13e be7f 52bd
000002e0: 9852 903d 3f4d ebbb 09e4 5b3f 3112 1e3e
000002f0: 500e 9f3d 1de3 e7bb c77e 813d 1ec0 c33e
00000300: 30a3 313f d0d2 2a3f 80a6 ac3e 7a0e 383f
00000310: b248 b53e e5ba 073f 81ff 2a3e 9e82 8d3e
00000320: 3305 c63e 394d 733e cdf1 043f acca 143f
00000330: 0d0c 29bd 5c37 043f faec 0f3f b434 043f
00000340: 27c1 293f 92a8 003f c060 223f 8045 fb3e
00000350: e8f4 063f bb19 e9bd e7e6 983e 27aa 063f
00000360: 0d21 973e 38d0 33be c268 a33e 3418 1e3f
00000370: 942b 4e3e 5a3a 153e a311 e23e a171 a03e
00000380: 984f 803e f3cc e63d 103e fc3e f4f7 803b
00000390: e644 bebd ef25 cb3e 08ec 923d f951 173f
000003a0: fd50 5b3e 0153 d93e cd61 ae3e aeb7 aebe
000003b0: fea7 b53d 1ba5 b53e 03f3 793e 6dcf c93e
000003c0: e66c ca3e 5cfe 0a3f b393 713d af6b 103e
000003d0: e50d 9c3e 9fe1 1f3f 45ea 59bc 0c55 7c3e
000003e0: 1898 de3e cf7b 2b3f 3a2d a1be 2b25 023f
000003f0: ad94 1a3f 71bb 153f 92b6 403e 42d7 15be

bias f4 [64]
-0.023605188 -0.021239623 -0.028161447 0.047945295 0.053654157 0.06847209 0.09977224 -0.012300545
-0.11421913 -0.034979258 -0.083818205 -0.05823814 -0.083934195 -0.06823289 0.017836483 -0.057387
-0.040749863 0.084729575 0.12791741 0.046793208 0.043995596 -0.10160241 0.020728827 0.015275134
0.12054712 -0.10909882 0.05928014 0.063536465 -0.048668522 -0.08354605 0.027097799 -0.02039515
-0.08435094 -0.07308547 -0.11896161 -0.03162408 0.12382428 0.091245204 0.102119215 -0.035732932
0.04479208 -0.05152334 0.00089804624 0.08129781 -0.055037986 0.08501566 0.120809846 -0.054173987
0.02593304 0.08355995 0.051501505 -0.07559062 0.10794318 0.011856327 0.003665371 0.022114217
-0.038392093 -0.06300795 -0.04885721 0.10286818 -0.09231441 -0.0707091 -0.09149206 0.10119284
00000000: ab5f c1bc b8fe adbc d6b2 e6bc 4962 443d
00000010: 76c4 5b3d 183b 8c3d 6355 cc3d 3a88 49bc
00000020: b8eb e9bd 6946 0fbd e1a8 abbd 1e8b 6ebd
00000030: b1e5 abbd afbd 8bbd d11d 923c a20e 6bbd
00000040: 54e9 26bd b386 ad3d c8fc 023e 3caa 3f3d
00000050: ba34 343d ed14 d0bd 80cf a93c 8e44 7a3c
00000060: 69e1 f63d 346f dfbd bbcf 723d 681f 823d
00000070: a558 47bd 311a abbd 34fc dd3c bb13 a7bc
00000080: 30c0 acbd d6ad 95bd 25a2 f3bd 4088 01bd
00000090: 9697 fd3d c4de ba3d e123 d13d b25c 12bd
000000a0: e677 373d 230a 53bd dd6a 6b3a 777f a63d
000000b0: 836f 61bd b11c ae3d 276b f73d 8be5 5dbd
000000c0: 8771 d43c 7b21 ab3d 3ef3 523d 41cf 9abd
000000d0: 5011 dd3d 0a41 423c b936 703b e028 b53c
000000e0: 0741 1dbd 500a 81bd 7f1e 48bd 8dac d23d
000000f0: 560f bdbd efcf 90bd 3060 bbbd 313e cf3d

weight f4 [2, 64]
0.34516007 -0.11398737 0.32166836 0.50611746 -0.53200406 0.0395545 0.13113728 0.04056247
0.08911985 0.20791721 0.023564203 0.568268 0.42704394 0.004352992 -0.08133642 -0.5175815
0.4255435 0.43398526 0.21875662 0.40776527 0.66547346 -0.75508314 0.3144377 0.23354913
0.3708049 0.32384425 0.29753736 0.24168114 -0.45499456 0.41165546 0.19228809 -0.016183203
0.394806 0.30747646 0.023583237 0.017896183 0.06786363 0.33734798 0.23988296 0.33531442
0.17188933 0.33595693 0.17515062 0.22126892 0.2988215 -0.6615529 0.31866065 0.4655216
-0.7024738 0.453074 0.36069733 0.37146208 -0.14077906 0.06759052 0.4601013 0.27203718
0.19328554 0.33964828 0.018187435 0.21710707 0.36599508 0.06655029 0.031708363 0.20090297
-0.46167275 0.2766234 -0.5353134 -0.5445403 0.4185725 -0.095138 -0.16363472 -0.21838798
-0.012642513 -0.38439116 0.01197257 -0.5771175 -0.42661107 -0.070566446 0.019145625 0.6214032
-0.2960286 -0.5494152 -0.21672498 -0.41850072 -0.6073406 0.76293415 -0.31415468 -0.124919325
-0.53648055 -0.23260117 -0.3787384 -0.22379623 0.2929475 -0.3452301 -0.27033424 -0.1658922
-0.42948535 -0.30606505 0.0030918228 -0.11287403 -0.28631407 -0.18402134 -0.21521272 -0.31160963
-0.25201976 -0.4066793 -0.0465078 -0.3321521 -0.09476646 0.53756404 -0.45291948 -0.37884602
0.7479196 -0.45884106 -0.44875714 -0.25216538 -0.045817968 -0.2529459 -0.5912665 -0.29704884
-0.22411288 -0.22679825 -0.0577196 -0.21658137 -0.20058852 -0.12483908 -0.05254771 -0.3602934
00000000: d2b8 b03e 3672 e9bd b7b1 a43e ea90 013f
00000010: 6b31 08bf e603 223d da48 063e d524 263d
00000020: 7884 b63d 40e8 543e b709 c13c 037a 113f
00000030: 81a5 da3e 8ba3 8e3b b593 a6bd 3980 04bf
00000040: d6e0 d93e 5133 de3e bc01 603e 9cc6 d03e
00000050: 785c 2a3f 214d 41bf fafd a03e 8127 6f3e
00000060: 24da bd3e eace a53e d156 983e 437b 773e
00000070: 0cf5 e8be 81c4 d23e 2be7 443e a392 84bc
00000080: 0324 ca3e 8e6d 9d3e a231 c13c 049b 923c
00000090: 16fc 8a3d e0b8 ac3e e1a3 753e 55ae ab3e
000000a0: c203 303e 8c02 ac3e af5a 333e 5294 623e
000000b0: 22ff 983e 885b 29bf 7d27 a33e d958 ee3e
000000c0: 53d5 33bf 51f9 e73e 52ad b83e 4730 be3e
000000d0: 6328 10be e66c 8a3d 6692 eb3e 7548 8b3e
000000e0: a5ec 453e 61e6 ad3e d1fd 943c 5151 5e3e
000000f0: b563 bb3e 854b 883d a1e0 013d 82b9 4d3e
00000100: 5f60 ecbe 95a1 8d3e 4d0a 09bf fe66 0bbf
00000110: 224f d63e b6d7 c2bd dc8f 27be 19a1 5fbe
00000120: 8b22 4fbc ebce c4be 9928 443c f9bd 13bf
00000130: c46c dabe 2485 90bd 49d7 9c3c 4814 1f3f
00000140: 1091 97be 79a6 0cbf 27ed 5dbe ba45 d6be
00000150: ac7a 1bbf a74f 433f e2d8 a0be b4d5 ffbd
00000160: ca56 09bf 002f 6ebe 00ea c1be d72a 65be
00000170: 37fd 953e 00c2 b0be 4069 8abe a5df 29be
00000180: 81e5 dbbe 8fb4 9cbe 2ea0 4a3b 802a e7bd
00000190: c297 92be 1770 3cbe b960 5cbe 4c8b 9fbe
000001a0: bc08 81be 4538 d0be f77e 3ebd d70f aabe
000001b0: eb14 c2bd cc9d 093f 10e5 e7be 1bf8 c1be
000001c0: a977 3f3f 37ed eabe 7fc3 e5be d21b 81be
000001d0: 9fab 3bbd 2082 81be 3e5d 17bf c916 98be
000001e0: d97d 65be cd3d 68be 636b 6cbd 82c7 5dbe
000001f0: 1467 4dbe a2ab ffbd 443c 57bd 6078 b8be

bias f4 [2]
-0.1602275 0.054147463
00000000: ae12 24be bbc9 5d3d

weight f4 [64]
1.6363175 0.9417555 1.201521 1.0516596 0.96582764 0.92482495 0.9298313 0.9079204
1.1922033 1.1420453 1.3527637 1.2871279 1.6374915 1.4780464 1.0744002 0.9205039
1.0047121 0.94374657 1.478017 0.9296592 1.6312366 1.4554023 1.0434241 1.0121634
1.0130486 1.4613717 0.84652627 1.3729324 0.90951216 1.6667956 0.90088105 1.0634983
1.3403099 1.06766 1.0037438 1.4173499 0.95549756 0.9737444 1.7323164 0.99553263
1.244164 1.0919843 0.98009443 0.9809203 1.0830116 1.2786351 1.3461956 0.99153775
0.9624767 1.0542604 0.8519584 1.0371292 1.0129919 1.0017036 1.0354489 0.8690846
0.9383918 1.0730362 1.2838912 1.4173414 0.98973775 0.8551531 1.1392856 1.086399
00000000: da72 d13f e316 713f 71cb 993f c89c 863f
00000010: 7b40 773f 54c1 6c3f 6d09 6e3f 796d 683f
00000020: 1e9a 983f 8a2e 923f 5c27 ad3f 9bc0 a43f
00000030: 5299 d13f a030 bd3f f285 893f 25a6 6b3f
00000040: 689a 803f 6099 713f a92f bd3f 25fe 6d3f
00000050: 5ccc d03f 9f4a ba3f ec8e 853f 928e 813f
00000060: 94ab 813f 3a0e bb3f f2b5 583f 40bc af3f
00000070: cad5 683f 8f59 d53f 24a0 663f b620 883f
00000080: 468f ab3f 15a9 883f ad7a 803f b96b b53f
00000090: 7d9b 743f 5047 793f 8bbc dd3f 3adb 7e3f
000000a0: c440 9f3f 24c6 8b3f 78e7 7a3f 981d 7b3f
000000b0: 20a0 8a3f 51aa a33f 2350 ac3f 6bd5 7d3f
000000c0: df64 763f 01f2 863f f219 5a3f a6c0 843f
000000d0: b8a9 813f d337 803f 9789 843f 547c 5e3f
000000e0: 723a 703f 4059 893f 8c56 a43f 716b b53f
000000f0: 745f 7d3f 50eb 5a3f 1cd4 913f 1f0f 8b3f

bias f4 [64]
-0.018213157 0.06820357 0.04854142 0.048744805 -0.05884391 0.10760482 -0.06782955 0.079988964
0.047965087 -0.04139625 -0.02107039 0.0015217026 -0.124017805 -0.012106821 0.07244103 0.015375477
0.116895184 0.18642229 -0.014366683 0.13885571 -0.016574373 -0.11972805 0.14849792 0.03501947
0.027872158 -0.114313625 0.09372803 -0.021496361 0.026972149 -0.10182467 0.080490194 0.02543925
-0.18267874 -0.10141945 0.14677 -0.279074 -0.006771135 0.13374217 -0.020602703 -0.0062645804
-0.096514024 -0.09551986 0.10366399 -0.10066438 -0.123478375 -0.021985382 -0.16348535 0.17084225
0.14472547 0.06129659 -0.39223236 -0.03179924 0.047860667 0.07410826 -0.113008365 -0.23776323
-0.0062383222 0.08541035 -0.1513775 -0.025282219 0.15618996 0.0350398 0.059142374 -0.18780941
00000000: c233 95bc 50ae 8b3d 5ed3 463d a2a8 473d
00000010: 5006 71bd ea5f dc3d 38ea 8abd 41d1 a33d
00000020: 0a77 443d 1d8f 29bd cf9b acbc de73 c73a
00000030: 0cfd fdbd b05b 46bc f65b 943d 6de9 7b3c
00000040: be66 ef3d 7ce5 3e3e 3c62 6bbc 3130 0e3e
00000050: fbc6 87bc fb33 f5bd d70f 183e 9370 0f3d
00000060: 2754 e43c 431d eabd 7bf4 bf3d 2319 b0bc
00000070: b2f4 dc3c 7489 d0bd 0bd8 a43d f965 d03c
00000080: 2310 3bbe 00b5 cfbd e04a 163e cae2 8ebe
00000090: 66e0 ddbb b5f3 083e 00c7 a8bc 1c47 cdbb
000000a0: 25a9 c5bd eb9f c3bd c94d d43d 2029 cebd
000000b0: 3be2 fcbd b01a b4bc b468 27be 45f1 2e3e
000000c0: ea32 143e 2212 7b3d aed2 c8be eb3f 02bd
000000d0: 8c09 443d 12c6 973d ee70 e7bd 3478 73be
000000e0: d76a ccbb 9feb ae3d b402 1bbe a81c cfbc
000000f0: 43f0 1f3e e585 0f3d 463f 723d 1c51 40be

running_mean f4 [64]
-0.7080152 0.46431 0.8902298 -0.03634639 1.0546887 -0.041504174 0.3779508 -0.42023653
1.3748367 1.0793986 -0.0073534995 -0.55919766 -0.49867722 0.32547724 0.1817259 0.47212833
0.6344413 0.54181516 0.01592904 0.06464638 0.41192222 -1.429445 -0.27026188 -0.1272319
0.42204362 -0.85193294 0.824588 -0.14053576 0.15350856 -0.3583901 -0.28554344 0.03412334
-1.3807516 0.15651403 0.82534486 -0.46500227 -0.5517738 -0.21163875 -0.87889624 0.07625504
-1.2015698 -0.5750434 -0.26010847 0.3793573 -0.35180175 0.112743385 -0.19252312 0.6594575
0.8874671 0.6757138 0.015798207 0.05572827 -0.38194448 1.0908574 0.26871628 -0.340985
0.6965674 1.0521035 -0.3242714 -0.6830475 0.8716976 0.12779377 0.6528822 0.65454113
00000000: 7c40 35bf 0aba ed3e 1ae6 633f f4df 14bd
00000010: 0a00 873f 4800 2abd c482 c13e 3e29 d7be
00000020: a6fa af3f bc29 8a3f a0f5 f0bb 9427 0fbf
00000030: 9f52 ffbe f4a4 a63e 5b16 3a3e ceba f13e
00000040: bf6a 223f 66b4 0a3f 9e7d 823c 5265 843d
00000050: 78e7 d23e 0ef8 b6bf c45f 8abe 1449 02be
00000060: 1a16 d83e 4718 5abf 3318 533f 9be8 0fbe
00000070: 5931 1d3e e87e b7be c032 92be eac4 0b3d
00000080: 78bc b0bf 3745 203e cd49 533f c714 eebe
00000090: 0c41 0dbf d4b7 58be 58ff 60bf 9a2b 9c3d
000000a0: 0acd 99bf 0b36 13bf f02c 85be 1f3b c23e
000000b0: 5c1f b4be 01e6 e63d c824 45be 35d2 283f
000000c0: 0b31 633f 94fb 2c3f 3e6b 813c 5443 643d
000000d0: 3a8e c3be 37a1 8b3f 2e95 893e 9695 aebe
000000e0: 3e52 323f 54ab 863f e706 a6be 33dc 2ebf
000000f0: 9327 5f3f 5fdc 023e 4a23 273f 0290 273f

running_var f4 [64]
150.5966 108.44689 208.08092 96.16946 122.57511 217.669 52.310955 89.25542
231.54361 193.28986 169.9909 111.4235 237.25339 129.50638 221.03761 69.39577
93.70056 116.47924 190.94955 87.84991 252.05557 275.3762 127.41267 91.19125
133.21857 163.95496 95.887375 154.27353 45.17718 315.50717 152.47696 80.80505
196.18631 118.80719 69.594315 195.39154 84.47154 138.8986 216.33983 153.71698
274.02563 121.1457 87.92385 68.24915 91.31525 110.80751 161.45972 264.41364
196.33783 108.80119 80.828255 121.18831 61.37242 70.50957 128.1156 110.723114
110.85197 121.33078 92.47277 163.7029 161.80717 137.31715 170.91182 149.60634
00000000: bb98 1643 cfe4 d842 b714 5043 c356 c042
00000010: 7526 f542 44ab 5943 6b3e 5142 c682 b242
00000020: 2a8b 6743 344a 4143 acfd 2943 d5d8 de42
00000030: de40 6d43 a281 0143 a109 5d43 a2ca 8a42
00000040: b066 bb42 5ff5 e842 16f3 3e43 27b3 af42
00000050: 3a0e 7c43 27b0 8943 49d3 fe42 ec61 b642
00000060: f437 0543 78f4 2343 56c6 bf42 0646 1a43
00000070: 6fb5 3442 ebc0 9d43 1a7a 1843 309c a142
00000080: b22f 4443 489d ed42 4a30 8b42 3c64 4343
00000090: 6ef1 a842 0be6 0a43 ff56 5843 8cb7 1943
000000a0: 4803 8943 994a f242 03d9 af42 917f 8842
000000b0: 68a1 b642 729d dd42 b075 2143 f234 8443
000000c0: 7c56 4443 369a d942 11a8 a142 6a60 f242
000000d0: 5c7d 7542 e604 8d42 981d 0043 3c72 dd42
000000e0: 35b4 dd42 5ca9 f242 0ff2 b842 f1b3 2343
000000f0: a3ce 2143 3151 0943 6de9 2a43 399b 1543

weight f4 [64]
1.4507952 0.8867753 1.3427742 1.7218022 1.3164896 0.63514084 0.7659153 0.9827698
0.6336144 1.1492529 0.5915938 1.6208267 1.4177319 0.51479584 0.26664078 1.6416652
1.1773441 1.4238243 1.066726 1.3968685 1.9308695 1.915525 1.1959256 0.75640684
1.3566736 1.1218666 1.3190142 0.8843692 1.160868 1.3920698 1.0073779 0.94664985
1.2918085 1.1394111 0.5020002 0.37684909 1.0012256 1.0587602 1.1310132 1.528499
1.0364164 1.2624724 0.97574365 1.0496559 1.074347 1.494097 1.2738736 1.3972455
1.5936874 1.518035 1.3414608 1.2683344 0.29242235 0.76763046 1.5979424 1.0083112
1.1248755 1.1094723 0.7605551 0.95399016 1.1324129 0.66268986 0.27637526 1.1469222
00000000: a8b3 b93f b503 633f 06e0 ab3f 0464 dc3f
00000010: bb82 a83f 9798 223f 0613 443f cd96 7b3f
00000020: 8e34 223f b81a 933f b172 173f 4077 cf3f
00000030: 3d78 b53f a9c9 033f 2485 883e 1622 d23f
00000040: 36b3 963f e03f b63f 7a8a 883f 96cc b23f
00000050: bb26 f73f ec2f f53f 1714 993f e1a3 413f
00000060: 7ba7 ad3f 5399 8f3f 75d5 a83f 0566 623f
00000070: 5397 943f 582f b23f c2f1 803f a557 723f
00000080: fb59 a53f 39d8 913f 1683 003f 5df2 c03e
00000090: 2928 803f 7485 873f 0ac5 903f dba5 c33f
000000a0: 4ba9 843f b298 a13f 56ca 793f 205b 863f
000000b0: 3484 893f 923e bf3f 4a0e a33f f1d8 b23f
000000c0: f3fd cb3f f94e c23f fdb4 ab3f c858 a23f
000000d0: 62b8 953e 6e83 443f 6089 cc3f 5710 813f
000000e0: ecfb 8f3f 3003 8e3f bdb3 423f b338 743f
000000f0: e8f2 903f 0ba6 293f 0f81 8d3e 59ce 923f

bias f4 [64]
0.14511591 -0.1836514 -0.032552395 0.5657505 -0.16275744 -0.3061624 -0.30902696 -0.026167003
-0.28977498 -0.036798444 -0.30937287 0.47656375 0.13925178 -0.6199014 -0.5709333 -0.20179531
0.055399615 0.26768947 0.027965905 0.18926501 0.34019873 -0.25796145 -0.1369813 -0.24516135
0.15773945 -0.0830979 0.0493681 -0.29379523 -0.14632775 0.012860738 -0.0062403176 -0.064528786
-0.14729474 0.009678163 -0.41006282 -0.2224257 0.0008438743 0.026792772 0.014555664 -0.13755
0.13074972 0.076711625 -0.5446969 0.113718815 0.043262463 -0.19402415 0.24481036 0.19832626
-0.080487676 0.15236375 0.45545793 0.18687063 -0.3242195 -0.3019051 0.47824314 -0.035242308
-0.04107616 0.0018743477 -0.37859926 -0.14161979 0.1347865 -0.40046394 -0.47670522 -0.24067587
00000000: 4499 143e 1d0f 3cbe a955 05bd 06d5 103f
00000010: e3a9 26be 51c1 9cbe c838 9ebe 2f5c d6bc
00000020: 635d 94be f7b9 16bd 1f66 9ebe 2a00 f43e
00000030: 0598 0e3e dcb1 1ebf af28 12bf 6ea3 4ebe
00000040: b5ea 623d 980e 893e c118 e53c b0ce 413e
00000050: 872e ae3e 8613 84be d344 0cbe 940b 7bbe
00000060: 7386 213e 3b2f aabd 3436 4a3d 546c 96be
00000070: f1d6 15be d8b5 523c 947b ccbb ab27 84bd
00000080: 6fd4 16be 2891 1e3c c1f3 d1be 90c3 63be
00000090: 7237 5d3a 847c db3c e17a 6e3c e8d9 0cbe
000000a0: 41e3 053e fc1a 9d3d 4271 0bbf 69e5 e83d
000000b0: fb33 313d 44ae 46be 91af 7a3e 0a16 4b3e
000000c0: b9d6 a4bd 3e05 1c3e c831 e93e 045b 3f3e
000000d0: 1900 a6be 4e93 9abe 49dc f43e 3d5a 10bd
000000e0: 7a3f 28bd acac f53a c3d7 c1be c704 11be
000000f0: 7905 0a3e 9c09 cdbe b512 f4be bc73 76be

running_mean f4 [64]
5.4722514 -5.754616 5.860175 8.75336 -8.845585 -3.2184522 -0.71369034 2.9495904
-4.4186783 4.673703 1.7050488 7.8462424 4.2302213 0.3128386 -4.216244 -11.399206
4.2220683 4.9093075 0.41281745 4.48854 5.130393 -12.543854 7.888464 1.5125084
6.303607 0.25426096 4.482685 6.134977 -8.174285 5.2552457 1.5863878 4.387416
2.3007305 4.2674894 0.39678633 -3.085088 2.7872398 2.9725907 4.09282 7.049114
2.150503 4.113787 4.375093 2.8819466 2.996036 -8.730171 4.898645 5.3603573
-7.4472675 4.1094184 6.2103786 4.4552565 -1.958749 4.898912 5.5410933 9.013199
3.5758724 2.7048674 7.091154 -0.22505973 3.696531 3.3339212 -5.3887105 2.905233
00000000: af1c af40 d025 b8c0 8e86 bb40 c30d 0c41
00000010: 8487 0dc1 1ffb 4dc0 69b4 36bf 17c6 3c40
00000020: d065 8dc0 fa8e 9540 0a3f da3f 6b14 fb40
00000030: f95d 8740 622c a03e 79eb 86c0 2663 36c1
00000040: 2f1b 8740 0c19 9d40 cf5c d33e 1fa2 8f40
00000050: 2e2c a440 a0b3 48c1 4c6e fc40 e099 c13f
00000060: 26b7 c940 7e2e 823e 2872 8f40 bb51 c440
00000070: dfc9 02c1 f92a a840 c10e cb3f b665 8c40
00000080: 2b3f 1340 468f 8840 9427 cb3e 1572 45c0
00000090: 2362 3240 ed3e 3e40 62f8 8240 5892 e140
000000a0: d7a1 0940 25a4 8340 c300 8c40 d071 3840
000000b0: 0ebf 3f40 c8ae 0bc1 b3c1 9c40 0c88 ab40
000000c0: 0450 eec0 5b80 8340 6cbb c640 7691 8e40
000000d0: 4ab8 fabf e3c3 9c40 a350 b140 1036 1041
000000e0: 18db 6440 8c1c 2d40 bcea e240 0f76 66be
000000f0: f793 6c40 f75e 5540 5170 acc0 56ef 3940

running_var f4 [64]
79.44246 21.277151 47.82451 78.17224 53.5938 61.21353 49.73865 22.39432
27.674463 53.943707 9.940041 79.3353 61.549126 96.06916 67.72302 85.36467
42.80793 64.5194 10.333166 43.316193 115.02469 99.41732 42.752033 13.671731
66.48517 30.267456 48.111713 27.128899 44.506176 84.679634 16.937084 13.642258
67.3791 63.69882 18.711853 34.671772 13.681411 22.47464 25.299023 86.1752
13.37623 49.639996 37.01293 31.362906 16.441345 52.65144 55.559612 47.753674
36.37015 98.16846 44.26838 50.095394 16.854252 16.27359 105.99773 51.45025
20.99429 31.640295 46.651943 28.39981 26.631798 40.351826 42.853455 74.51004
00000000: 8ae2 9e42 9b37 aa41 4c4c 3f42 3058 9c42
00000010: 0d60 5642 a8da 7442 61f4 4642 9127 b341
00000020: 4d65 dd41 5bc6 5742 680a 1f41 acab 9e42
00000030: 4e32 7642 6923 c042 3072 8742 b6ba aa42
00000040: 523b 2b42 ef09 8142 a654 2541 c843 2d42
00000050: a40c e642 abd5 c642 1502 2b42 69bf 5a41
00000060: 68f8 8442 c023 f241 6572 4042 fc07 d941
00000070: 5306 3242 f95b a942 267f 8741 b046 5a41
00000080: 19c2 8642 97cb 7e42 e0b1 9541 e5af 0a42
00000090: 0fe7 5a41 10cc b341 6664 ca41 b459 ac42
000000a0: 0a05 5641 5b8f 4642 3e0d 1442 3be7 fa41
000000b0: e087 8341 139b 5242 0b3d 5e42 c303 3f42
000000c0: 097b 1142 4056 c442 d212 3142 af61 4842
000000d0: 82d5 8641 5030 8241 d6fe d342 0ecd 4d42
000000e0: 4ef4 a741 531f fd41 979b 3a42 d032 e341
000000f0: ec0d d541 4568 2142 f069 2b42 2405 9542
