Code/saved_models/GIN:Set2Set: 25.05.2023 22:34:08.pt (torch, 32901 bytes, 32 tensors)

weight f4 [4, 3]
000000 e1 05 80 3e 01 4e 91 be 31 f7 b8 3e 74 b1 ff be
       0.25004485 -0.28379825 0.36126092 -0.49940073
000010 28 f4 07 bf 67 81 22 3e 1b 7f 10 3f b1 c1 64 be
       -0.5310693 0.15869676 0.5644395 -0.22339512
000020 9f b1 fc 3e 72 dc 51 be cf a1 e0 be d8 d6 b7 bd
       0.49354264 -0.2049425 -0.4387345 -0.08976525

bias f4 [4]
000000 db ab a6 3e 12 27 9e be bc 19 07 3f cb 31 84 be
       0.3255299 -0.30889183 0.5277364 -0.2581924

weight f4 [4, 4]
000000 f6 0b 5e be 90 3c 55 be a4 96 a3 be d2 cd ee 3e
       -0.2168425 -0.20823884 -0.31950867 0.46641403
000010 48 a2 90 be f8 5a 66 be 54 e2 1f be 04 80 d7 3e
       -0.2824881 -0.2249564 -0.15613681 0.42089856
000020 d4 da 6e 3e 34 83 3c 3e 04 a3 06 be 4e 60 81 3e
       0.23325664 0.18409425 -0.13148123 0.25268787
000030 0b 07 f7 3c 4d 95 c8 3e 16 89 0c 3e 06 e5 bb 3e
       0.030154726 0.39176407 0.13724169 0.3669817

bias f4 [4]
000000 8e b8 d6 3e a5 2c 6a 3d 1a 51 f5 be 6e 1d be 3d
       0.4193768 0.057171483 -0.47913438 0.09282957

weight f4 [4, 4]
000000 eb e4 c8 be a9 c7 b2 3d 60 59 65 bd b5 f9 c5 3e
       -0.3923715 0.087294884 -0.055993438 0.38667074
000010 d9 83 b3 be 33 aa d6 be a8 33 64 3e 77 9a b3 3e
       -0.3506153 -0.41926727 0.2228533 0.35078785
000020 a7 7f df bd d1 92 0a 3e 60 74 cd 3e 12 dd 39 3d
       -0.109130196 0.13532569 0.4012785 0.045376845
000030 94 1a 0f be 3c 05 94 3e f6 b8 e6 3e f8 d0 ad bd
       -0.13974983 0.28910244 0.4506299 -0.08487123

bias f4 [4]
000000 51 4b b7 3e 5a bb 01 3d 37 8c dc bd 10 bd 32 bd
       0.3579965 0.031672813 -0.10768931 -0.043637335

weight f4 [4, 4]
000000 bf af 00 bf 9b 53 64 3e f2 56 8b be 70 06 da be
       -0.5026817 0.22297518 -0.27214772 -0.42583036
000010 38 f8 8d bd 1c 9b 50 be 38 f1 a2 be 88 94 d7 bd
       -0.069321096 -0.2037167 -0.3182466 -0.10526377
000020 39 21 4b bd 2f 71 3f 3e 77 4d 90 3d 08 d1 88 bd
       -0.04959223 0.1869552 0.07046025 -0.066804945
000030 53 d5 dc 3d a4 20 a9 be a0 9d d8 3e 88 b5 7a 3e
       0.10782876 -0.33032715 0.42307758 0.24483311

bias f4 [4]
000000 0b 38 9a 3e 5c 56 e4 be 7e bd ae 3e f7 36 cf 3d
       0.30120882 -0.44597137 0.34128946 0.101179056

weight f4 [16, 16]
000000 c8 63 77 be 74 14 73 3e 80 6e ab bb d8 62 44 3d
       -0.24159157 0.23738271 -0.0052316785 0.047945827
000010 10 ca 53 3e fc 16 25 3e b6 c1 63 3e f6 f0 6e be
       0.2068255 0.16122049 0.22241864 -0.23334107
000020 c5 82 8c 3e a8 de 8a 3d 00 c8 54 3b 02 b8 2d be
       0.2744352 0.067807496 0.0032467842 -0.16964725
000030 6f de e4 bd bc 87 78 3e 2a ca 45 3e 14 32 41 3e
       -0.11175238 0.24270529 0.193154 0.1886676
000040 10 1c ac bc 4e 99 0e be 18 19 6f 3d 5c f8 f3 bd
       -0.021009475 -0.13925669 0.05837354 -0.11912605
000050 38 a4 26 be d0 5b a5 3d aa cb 48 3e 86 63 44 be
       -0.16273582 0.080741525 0.19608942 -0.1917859
000060 4f 9f 7a be b1 c7 05 3d 5c 65 b4 bd 86 d3 9a bd
       -0.24474834 0.032661144 -0.08808395 -0.07559876
000070 c6 d8 9a bd c0 de 6c bc 1b 96 85 bd f0 f0 36 3e
       -0.075608775 -0.014457405 -0.06522771 0.17865348
000080 0e dc 0d 3e 9c 09 a1 3d 18 2f a4 bd 80 8c b6 bc
       0.13853475 0.07863161 -0.08016795 -0.022283792
000090 4e f8 25 3e c0 ce a9 3c 8c f8 76 be 10 98 c2 3c
       0.16208002 0.020728469 -0.2411825 0.02375415
0000a0 db 5b fc 3d 15 a8 7f bd a8 29 3f bd 1f 42 8c bb
       0.123222075 -0.062416155 -0.046670586 -0.004280343
0000b0 aa 8f 03 3e 14 63 53 3e c8 7b 50 be 85 5d 3f 3e
       0.12847772 0.20643264 -0.20359719 0.18688019
0000c0 40 a9 d1 3d 64 3b b3 3d fe 6b 11 be 9e 26 12 be
       0.1023736 0.08751562 -0.14201352 -0.14272544
0000d0 16 33 7e 3e c8 05 83 3d 38 e5 63 bd 50 67 4f bd
       0.24824175 0.06397587 -0.055638522 -0.050635636
0000e0 35 57 16 3e 64 b2 87 bd be f5 2c 3e 15 e2 da bd
       0.14681704 -0.06625822 0.16890618 -0.10687653
0000f0 f0 bf 4e 3d f4 e0 86 3d f9 a8 03 be e5 fb 52 bb
       0.050476015 0.06585875 -0.12857427 -0.0032193598
000100 70 87 4c 3d 7c 5e 7a be d8 aa 49 bd 20 fc c2 3c
       0.04993385 -0.24450105 -0.049235195 0.023801863
000110 ba d9 52 3e e0 c1 62 3d 00 97 59 be 8c 10 96 bd
       0.20590869 0.055360675 -0.21249008 -0.07327375
000120 3a 32 7c 3e 9f ec 09 bd 36 21 41 3e c4 bd ac 3c
       0.24628535 -0.033672925 0.18860325 0.021086581
000130 cc 15 2d 3e 4c 06 dc bd cb f6 79 3e 8a d9 59 3d
       0.16902846 -0.107433885 0.2441055 0.053185977
000140 e8 a4 51 bd 0c d7 44 3e 54 7c fc 3d 6e 13 2c be
       -0.051182657 0.19222659 0.12328401 -0.16804287
000150 a0 41 93 bc 68 7b 37 3e 70 1e 7f 3d c8 ec a1 bd
       -0.017975628 0.1791817 0.062284887 -0.079064906
000160 c8 9a 2b be b1 66 34 be 2c 4e 0e 3e 55 4b c7 3d
       -0.16758263 -0.17617299 0.13897008 0.09731165
000170 fc 62 65 be 48 41 52 bd 34 5a 80 3d bb 36 63 be
       -0.22401041 -0.05133179 0.06267205 -0.22188847
000180 c8 9e 5c 3e d0 6a da bc d4 fc cf bd 00 0a e4 3c
       0.21544945 -0.02666226 -0.10155645 0.0278368
000190 6c f8 b8 3d 38 8c 63 3d 00 c6 72 3e 48 1d 10 3e
       0.09031758 0.055553645 0.23708344 0.1407367
0001a0 8a 87 3a bd 90 e6 14 3d 28 22 78 3d f2 61 df bd
       -0.045539416 0.036352694 0.06057945 -0.109073535
0001b0 51 81 71 be 10 da d9 bc 32 f9 a4 bd 36 94 5d be
       -0.23584487 -0.026593238 -0.08055343 -0.21638569
0001c0 10 98 b6 3d 14 d3 d6 bd ee 18 75 3e b4 1c b7 3d
       0.08915722 -0.10489479 0.23935291 0.089410216
0001d0 c4 0a da 3d bc 3a 95 3d 14 ae c7 3d b0 e9 23 3e
       0.10646585 0.07286593 0.0975 0.16007113
0001e0 e7 87 00 3e f0 a9 c1 bc 18 25 91 bd 56 4e 49 3d
       0.12551843 -0.023640603 -0.07087153 0.049146973
0001f0 13 dd 36 be 40 20 50 bc b8 69 02 3e 32 cc cf 3d
       -0.1785777 -0.0127030015 0.12735641 0.10146369
000200 32 9f 77 be 30 41 c6 3d 6c 3c c6 bd de 50 34 be
       -0.24181822 0.09680402 -0.09679493 -0.17608973
000210 fc 0b da bd 40 be b0 bb 28 25 fc 3d 40 00 64 be
       -0.10646817 -0.0053937733 0.123117745 -0.2226572
000220 64 b4 99 3d 07 6f 6a 3e 02 a2 10 be b9 13 93 3d
       0.0750511 0.22893916 -0.14124301 0.07181496
000230 c0 77 b2 bd d0 c0 7b 3d 23 e6 ac 3d 55 57 25 be
       -0.08714247 0.061463177 0.084423326 -0.16146596
000240 50 09 75 3d 78 07 7d 3e e0 b1 8f 3c 4c b7 35 be
       0.059823334 0.2470988 0.017540872 -0.17745703
000250 80 ef 4c 3b e0 d1 61 3d 24 a7 9d 3d e0 a3 93 bc
       0.0031270683 0.055131793 0.07697895 -0.018022478
000260 60 c4 5e 3b 59 6a e8 bd 44 6d 25 3e a0 20 2c be
       0.003399156 -0.11348409 0.16154963 -0.1680932
000270 9a 61 9f bd 1e db 29 3e 19 8a fc bd 34 4b 61 bc
       -0.07782288 0.16587493 -0.123310275 -0.01375084
000280 40 22 cc bd bc e9 62 be cc cf f6 3d d8 58 e3 bd
       -0.0996747 -0.22159475 0.12051353 -0.1110093
000290 18 45 ec bd 60 a3 61 bd c8 47 8c 3d 6a c7 60 3e
       -0.11536616 -0.055087447 0.06849629 0.2195107
0002a0 7d f1 67 3e b3 b5 8d bb 04 90 5b be ea 66 4a bc
       0.22650714 -0.0043246388 -0.21441656 -0.012353638
0002b0 34 d9 06 3c e8 33 58 3e 6b eb 79 bd 46 75 67 be
       0.008230496 0.2111355 -0.061015528 -0.2260333
0002c0 94 02 ba 3d 10 93 60 bd 34 a7 b2 3d 5c 0e 9a 3d
       0.09082523 -0.05482775 0.08723298 0.0752227
0002d0 c4 81 b6 3d 60 9b 0d 3e 42 78 33 be 3a 85 50 be
       0.089114696 0.13828802 -0.17526343 -0.20363322
0002e0 a7 69 44 3e 8c 1f 69 3e c8 1c ca bd 14 ac 88 3e
       0.19180928 0.2276594 -0.09868771 0.26693785
0002f0 fc 0b b5 3c 1c 89 86 bd 0f 6c 15 be 25 89 15 be
       0.022100441 -0.0656912 -0.14592002 -0.14603098
000300 9e 69 4d 3e 78 5a 1d be b0 02 d2 bd f8 d8 7e 3e
       0.20059821 -0.15366542 -0.10254419 0.24887455
000310 dc 1d fa bd a4 e2 7b 3e 60 a8 e4 3d 0c 01 fe 3d
       -0.122127265 0.24598175 0.111649275 0.124025434
000320 43 f9 ea 3c c3 68 3a bd f8 45 e4 3d 46 b5 dd 3d
       0.02868331 -0.045510065 0.11146158 0.10825591
000330 cc 3b 0e be 7e e4 52 be dd 6b 43 be de 99 39 bd
       -0.13889998 -0.20594975 -0.19084115 -0.045312755
000340 a8 6e 92 3d d0 42 22 be 98 a8 3c 3d 5e 78 13 3e
       0.07150012 -0.158458 0.04605922 0.14401385
000350 a4 91 16 3e a8 52 bf bd b8 bc 6a 3d ec fa 62 be
       0.14703995 -0.09341937 0.057308882 -0.22166032
000360 36 5b 50 3e 59 a1 40 be c0 56 63 3c d3 0d e4 bd
       0.20347294 -0.18811549 0.013875663 -0.11135449
000370 72 82 46 be 84 e6 5d be 7e cc 31 be c4 fb 20 be
       -0.19385698 -0.21669966 -0.17363164 -0.15721041
000380 64 5c 43 3e 60 4b 1d bd ea e9 2a be f6 61 6c 3a
       0.19078213 -0.03840196 -0.16690794 0.0009017283
000390 f4 21 e7 bd 58 48 14 bd e0 28 5c 3e ae ee 61 be
       -0.11285773 -0.036201805 0.21499968 -0.22063705
0003a0 5f d7 8e be 2f 5a 75 3d 30 6f 32 3e cc 85 fa bd
       -0.2789869 0.05990046 0.17425227 -0.12232551
0003b0 6d 96 3e 3d 3e a2 7d 3e 7b 8c 70 bc 96 07 4d be
       0.046530176 0.24768922 -0.014681931 -0.20022425
0003c0 44 2e fb 3d 34 99 10 3e a0 9c d4 bc 96 ca 50 be
       0.12264684 0.14120942 -0.02595359 -0.2038978
0003d0 20 da 1e 3c 12 c9 25 be 54 8c 5a be 94 c8 1f 3e
       0.00969556 -0.16189983 -0.21342593 0.15603858
0003e0 f5 7a 0a 3e c3 13 ce 3d f8 e2 50 be 28 21 80 3e
       0.13523467 0.10062363 -0.20399082 0.25025296
0003f0 a0 41 26 3e 74 04 5c 3e 61 6d ec bb 38 e8 63 bd
       0.16235971 0.21486074 -0.0072151874 -0.055641383

bias f4 [16]
000000 30 98 65 be 6a e9 3c 3e d9 c6 56 bc d6 f8 7f be
       -0.22421336 0.18448415 -0.013108932 -0.24997267
000010 a4 4e 7a 3e 00 66 04 bd 7e f8 19 3e 98 25 17 bd
       0.24444062 -0.032323837 0.15036198 -0.036901087
000020 e7 17 21 bd 80 31 61 3e 1c 8d 54 3e 64 f6 ee bd
       -0.039329436 0.21991539 0.20756954 -0.11668089
000030 f3 f2 ff 3b 2a e3 2d 3e 8b da 44 3c 7a 88 38 bd
       0.007810944 0.16981187 0.012014995 -0.04505203

weight f4 [16, 16]
000000 29 a3 3e 3e 65 0c 45 3e 61 9c dc bd 01 87 1b 3e
       0.18616928 0.1924301 -0.107720144 0.15188219
000010 e0 52 86 bd 03 4c 96 3a 65 d4 2f 3e 81 86 08 bc
       -0.06558776 0.0011466745 0.17170866 -0.0083328495
000020 b3 c3 50 bc 43 10 b9 bd 93 df 7c be e2 e9 50 3e
       -0.012741971 -0.09036305 -0.24694662 0.20401719
000030 1f 13 46 be 7d c3 6a be 03 05 43 bb 43 c4 2a bd
       -0.19343232 -0.22926135 -0.0029757626 -0.041691076
000040 3a bf 40 3d 74 e8 93 3c 30 83 95 3e a6 af 59 be
       0.047057368 0.018055178 0.2920165 -0.21258411
000050 83 7b d8 bd d9 45 6b 3d 8d c7 41 be b5 27 7d be
       -0.10570433 0.05743966 -0.18923779 -0.24722178
000060 d2 b7 23 3e 95 d5 12 3e 01 f9 1e bd 53 a3 8a 3d
       0.1598809 0.14339288 -0.038811687 0.06769433
000070 12 23 16 3d 84 ca e1 3b 03 39 58 3e 98 46 79 3c
       0.03665454 0.006890597 0.21115498 0.015214585
000080 80 0c 38 3e 86 e0 4b be a3 7a ca bd ea fd 39 3d
       0.17973518 -0.19909868 -0.09886672 0.045408167
000090 be 01 16 3e 33 ad d7 bd 09 10 3a 3e 12 17 56 be
       0.14649102 -0.10531082 0.1817018 -0.20907238
0000a0 7f 39 d0 bd 3f 08 37 3e 8a d5 2f be 52 d0 74 be
       -0.101672165 0.1787424 -0.17171302 -0.23907593
0000b0 29 35 85 bd a0 81 51 be 95 34 8f 3d 28 2d 16 bd
       -0.0650428 -0.20459604 0.06992451 -0.036664158
0000c0 e7 a9 8f bd 2b 50 10 3e 34 a4 9e 3c 04 ae 62 be
       -0.07014828 0.14093082 0.019365408 -0.22136694
0000d0 57 f7 6b be 19 fe 24 3e 9c 91 e2 3d 72 f5 10 3e
       -0.23043571 0.16112556 0.11062929 0.1415613
0000e0 69 38 58 be 3b 35 3d bd 99 03 61 3e 27 dd 57 3e
       -0.21115269 -0.046193343 0.21974029 0.21080457
0000f0 24 a8 34 3e b6 c1 6f 3e 4a 11 95 bd 0b e2 33 be
       0.17642266 0.23413739 -0.07278688 -0.17566697
000100 e2 bc 0f 3e b1 3f 19 3e 4a a1 9a bd 73 4e c9 bc
       0.14036897 0.14965703 -0.07550295 -0.02457354
000110 ad b1 30 bc e6 56 5d be b2 eb de bd 7e 4e a0 bd
       -0.010784549 -0.2161518 -0.10884799 -0.07827471
000120 83 a9 c4 3d 05 cb a4 bd 68 4b e9 3d 36 6f 68 3e
       0.09602644 -0.080465354 0.11391336 0.22698674
000130 2f 40 2a bd ba c6 63 bd 85 6b 2d be c3 9b 30 bc
       -0.041565116 -0.055609442 -0.16935547 -0.010779324
000140 3b bd 6c be 11 eb 30 3e b9 07 57 3e 3d e8 7a 3d
       -0.2311906 0.1727717 0.2099904 0.061256636
000150 02 b4 5e 3e 3e 0f d4 3d 46 be 26 3e 0c 86 60 3e
       0.21748355 0.1035447 0.16283521 0.21926135
000160 18 e9 48 be 34 30 ea 3b c8 8a 97 3d 1e 0f b8 bd
       -0.19620168 0.0071468595 0.07399517 -0.089872584
000170 b8 b9 48 be fe 49 85 bd 3a 59 02 be 73 e2 ee bd
       -0.19602096 -0.065082535 -0.1272935 -0.116642855
000180 e6 1d 5c be 09 41 53 bd e0 7c f1 3d ee d8 08 be
       -0.2149578 -0.051575694 0.11791396 -0.13364002
000190 41 12 a5 3d b5 e1 48 be 7e 53 f8 bd d4 ed 8d 3c
       0.08060122 -0.1961735 -0.121253 0.01732532
0001a0 93 cb 6d 3e 3a 0d 75 be 72 a7 a7 3d 89 dd ac 3c
       0.23222189 -0.23930827 0.081862345 0.02110173
0001b0 3e 6e 3f be 0b ad 4f be ef 43 12 3e 4f a5 22 be
       -0.18694398 -0.20280854 0.14283727 -0.15883373
0001c0 5f eb 34 3e af 28 31 be 29 f1 42 3e f4 44 01 be
       0.17667912 -0.17300676 0.19037308 -0.1262396
0001d0 41 0a c9 3d 15 d9 88 3d c5 2b 4d be 3a 6a 09 be
       0.09816409 0.0668203 -0.20036228 -0.13419428
0001e0 05 38 8c bd 7b f8 09 3c 78 3d f6 3d fc 1c dc bd
       -0.068466224 0.008421059 0.12023443 -0.10747716
0001f0 e4 b5 ea 3c 53 67 09 be cb 43 f4 bd 0b a0 20 3e
       0.028651185 -0.13418321 -0.11926993 0.15686052
000200 7c dc 27 bd b4 03 3f be 85 b3 18 3d 2d b2 3b bc
       -0.040981755 -0.18653756 0.03728058 -0.011456055
000210 df fe b3 3d 16 b2 a8 bd b3 d3 34 3d 48 f5 cb bd
       0.08788847 -0.08237092 0.044147205 -0.09958893
000220 da 71 d9 bd 1b eb be 3d 6c 92 b2 3d 89 46 b8 3d
       -0.106174186 0.093221866 0.08719334 0.089978285
000230 31 6b 8c 3e 98 cb 3a 3d 85 c3 54 3d d1 4a 99 bc
       0.2742553 0.04560432 0.051944274 -0.018712433
000240 63 af 7d be ed 10 ae 3d 42 f5 40 3e b8 39 9a 3c
       -0.24773936 0.08499322 0.18843558 0.01882635
000250 4c aa 4d be 36 cf 5d 3e 48 fd 2f 3d 13 33 3d 3e
       -0.20084494 0.21661076 0.042966157 0.18476515
000260 fc cd da 3d a0 ae e7 3c 9d 77 a1 bd e4 80 4e 3d
       0.1068382 0.02828151 -0.078841425 0.05041589
000270 27 52 99 3d 09 e8 c7 bc 65 58 2f be 77 6d 07 be
       0.074863724 -0.024402635 -0.17123564 -0.13225351
000280 b5 e3 83 be 91 50 16 be ed 54 9c bd bc 2b 31 3e
       -0.25759664 -0.14679171 -0.07633386 0.1730184
000290 2d 80 3c be d5 3a 94 be 7d 16 c0 3d c6 47 39 3e
       -0.1840827 -0.28951135 0.09379289 0.18093786
0002a0 f6 2c 72 be c1 81 7b bc 23 5b 05 3d e7 17 c0 3d
       -0.23649964 -0.01535076 0.032557618 0.09379559
0002b0 f1 ac b2 bd 1c e1 ba 3d 02 a7 1e 3e a5 96 83 3d
       -0.08724392 0.091249675 0.15493396 0.064252175
0002c0 d0 ec ff 3d 61 51 17 3e a0 0c 5f be b2 47 6d 3d
       0.1249634 0.14777137 -0.2178216 0.057929702
0002d0 39 57 52 3e 1d 6f 46 be 4c 23 5f be 5e 25 5c be
       0.20541085 -0.19378324 -0.21790808 -0.2149863
0002e0 14 48 9c 3d 3f 3a 5a 3e ac f4 38 bc 06 58 de bd
       0.07630935 0.21311282 -0.011288803 -0.10856633
0002f0 15 77 9e 3c 17 92 59 be ad cd 1f 3d 1b f3 2a be
       0.019343892 -0.21247135 0.039014507 -0.166943
000300 e5 56 4d be dc ef 42 be 3e 07 dc bd cd 47 05 3e
       -0.20052679 -0.19036812 -0.10743569 0.13015671
000310 59 3d 5d 3c 03 32 1a 3e c0 02 81 be af 5b 55 be
       0.013503396 0.1505814 -0.2519741 -0.20835756
000320 eb f4 05 3e e2 93 3a 3e 1c c8 37 3e 42 9f 81 be
       0.1308171 0.18220475 0.1794743 -0.25316817
000330 5f ba bb 3d 01 f8 86 be 35 54 a3 bd 7a ae 6b bc
       0.09166407 -0.26361087 -0.079750456 -0.01438486
000340 89 21 f5 3d 19 14 5f bd df bc 5a be 77 73 76 be
       0.11969287 -0.054462526 -0.21361111 -0.24067484
000350 b5 36 c6 bd fa c9 48 3e f2 2d 0d 3e 5c 38 db 3d
       -0.09678403 0.19608298 0.13787058 0.10704109
000360 5b 61 58 be 9d f8 4f be 4f 70 70 3e ac 84 1e 3e
       -0.21130888 -0.20309682 0.23480342 0.15480298
000370 71 c1 e4 bd ec fd 03 3d e6 12 54 3e 4c eb 58 3e
       -0.111697085 0.03222458 0.20710334 0.21183509
000380 42 bf 2f be 9b 06 bb bd 29 6f 00 3e 29 c6 5d 3e
       -0.17162803 -0.09132119 0.12542404 0.21657623
000390 b6 f0 85 3d 12 0d 48 3b 1f 41 fe 3c 55 0f 76 3e
       0.065400526 0.0030525369 0.031036912 0.24029286
0003a0 a8 9d 39 be bf 37 11 3e 65 9d 25 be 30 3a 2f 3d
       -0.18126547 0.14181422 -0.16173322 0.0427801
0003b0 75 61 5f be f2 23 40 3e 77 34 ed bd 7a c8 fb 3c
       -0.2181452 0.18763712 -0.115822725 0.030735243
0003c0 a2 d6 1a be ce 5c d2 3c 78 20 ee bd 8f 95 fb bd
       -0.15120938 0.025679018 -0.11627287 -0.122843854
0003d0 44 76 d5 bd 6c b2 26 3e c7 06 fb 3c 45 a4 68 bd
       -0.10422948 0.16279 0.03064288 -0.056797285
0003e0 6d 41 63 3e 3a 16 83 3d 41 45 9d bd 58 62 87 3c
       0.22192927 0.06400724 -0.07679225 0.016526386
0003f0 1d 84 b1 bd d5 5d b3 bd 75 4c 9d bd 8d d6 a6 3d
       -0.08667777 -0.087581314 -0.07680599 0.08146391

bias f4 [16]
000000 44 f3 63 be 96 5d 47 be 06 d9 2b 3e 28 40 75 bd
       -0.22260767 -0.19469294 0.16782007 -0.059875637
000010 40 3b 17 bc 1c d1 b2 3d a0 03 e5 bd 98 56 33 3e
       -0.009230435 0.08731291 -0.11182332 0.17513502
000020 08 cb 67 bd 40 97 79 3c 36 8c 31 be f8 32 d0 3d
       -0.05659011 0.015233815 -0.17338642 0.101659715
000030 b6 f4 35 be ee b0 1b 3e 28 f9 10 bd 30 ff ba bd
       -0.17769131 0.15204212 -0.035393864 -0.091307044

weight f4 [16, 16]
000000 30 10 c1 bd f3 d4 a8 bc 18 c1 63 3e 9c 9b 0e 3d
       -0.09426916 -0.020609355 0.22241628 0.03481637
000010 f6 f3 08 3e 24 de 66 be ba ed bc 3b b2 45 11 be
       0.13374314 -0.22545677 0.005765644 -0.14186743
000020 a4 5c 3d be 82 e5 12 3d 84 2e c0 bd da 8c c4 3c
       -0.18492371 0.035863407 -0.09383872 0.023992945
000030 1b 13 ad bd a8 5c 86 be a6 a4 20 be e5 25 75 be
       -0.0845091 -0.26242566 -0.15687808 -0.23940237
000040 fa 6d 58 3d 1a 21 2f be 05 41 41 3e 21 a0 e8 3d
       0.052839257 -0.17102471 0.18872459 0.11358667
000050 ae c5 fa bd 2f 92 22 bd df de 66 be 3d ac 54 3e
       -0.12244736 -0.039690193 -0.22545956 0.20768829
000060 4f 97 a1 bd 63 ad 4c bd f3 23 96 3c 9d ce f0 3d
       -0.07890188 -0.049970042 0.018327689 0.11758158
000070 2e 6d a4 bd 70 e8 04 3e 0b d2 1f 3e 1c 64 fd bc
       -0.08028637 0.12979293 0.15607469 -0.030931525
000080 ab 75 09 3e 9d 2b 80 be 22 7b 1d be 19 6d 25 bd
       0.13423793 -0.25033274 -0.15379003 -0.040387247
000090 46 2c 08 bd 8a 58 71 3d da 3a 54 3e 0a 06 40 be
       -0.033245347 0.058922328 0.20725575 -0.18752304
0000a0 75 a9 04 3e fe c7 98 3d 6f 92 06 3e a2 41 fe 3d
       0.12955268 0.074600205 0.13141797 0.12414862
0000b0 f6 81 23 bd c9 11 72 bd 0d 28 34 be 52 da 92 3d
       -0.039918862 -0.059098992 -0.17593403 0.071705475
0000c0 14 17 46 3e 74 4f 70 3d 97 bf 50 3e 52 7a b5 3d
       0.19344741 0.058669522 0.20385586 0.088612214
0000d0 94 c4 1a 3d 5a e9 8a bd 0e 92 58 be 09 c7 63 bd
       0.037785128 -0.067827895 -0.21149465 -0.055609737
0000e0 2c 21 4c 3e e0 03 57 3e be 5e a5 bd 29 cc 52 3e
       0.19934529 0.20997572 -0.08074711 0.20585693
0000f0 59 4d 58 3e 7d 38 68 be df 32 84 be 87 04 05 be
       0.21123256 -0.22677799 -0.25820062 -0.12990008
000100 e7 30 9a bc dd 94 e8 3d 8c 43 dd 3d b1 31 27 3e
       -0.018822147 0.113565184 0.10803899 0.1632755
000110 84 f9 ef bd 15 4f 33 3e fe a0 42 3d b8 90 30 be
       -0.11717513 0.17510636 0.047516815 -0.17242706
000120 dc 9f 37 be a2 4f b6 3d 34 1f 70 3e 7c f1 24 be
       -0.17932075 0.089019075 0.23449403 -0.16107744
000130 ba c1 ec 3c e0 4a 6a be ad 93 2d 3e 1a 79 97 3d
       0.02890097 -0.22880125 0.16950865 0.07396145
000140 90 d3 97 bd e8 51 e3 3d 6a 67 c4 3d 14 1a 21 3e
       -0.07413399 0.11099607 0.09590037 0.15732604
000150 fe fe e7 3c d3 da 86 bc 35 d3 0e 3e 58 4f 9c 3d
       0.028319832 -0.016461765 0.13947757 0.07632321
000160 5b 3d 65 be a3 72 c2 bd 91 79 1f 3e 19 e2 08 be
       -0.22386687 -0.094945215 0.15573718 -0.133675
000170 02 c7 4f 3e b3 c6 58 bd df df 67 3e eb 76 14 be
       0.20290759 -0.05292387 0.22643994 -0.14498489
000180 34 0d 08 3e 0f 50 29 be 18 3b 14 3e 9c 0b e5 3d
       0.13286287 -0.16534446 0.14475667 0.11183855
000190 d1 da 0e 3e fb d6 44 3d cc b7 34 3e 97 e3 c0 bd
       0.1395066 0.048056584 0.17648238 -0.09418409
0001a0 ff e2 ae bd bd 6e 98 3d 97 50 40 be 8b 7d cd bb
       -0.0853939 0.07442997 -0.18780743 -0.0062710694
0001b0 8d 4c c1 3d b1 6d 63 be 51 62 a7 bc 0f 55 a4 3c
       0.09438429 -0.22209813 -0.020432623 0.02006009
0001c0 50 59 2d be d8 14 71 3e f7 3c b9 3b dc d6 58 be
       -0.16928601 0.23543108 0.0056530195 -0.21175712
0001d0 ee 5a a1 bd 78 f9 8a 3d 5a bd 21 3e 29 20 8c bd
       -0.078786716 0.06785864 0.15794888 -0.068420716
0001e0 bd f3 71 3e d2 bf a9 bd a4 af 48 be db 82 88 bd
       0.23628135 -0.0828854 -0.19598252 -0.06665584
0001f0 ce f4 3f be 65 e1 d8 3d 8f 50 33 3e fe 8a 46 be
       -0.1874573 0.105898656 0.175112 -0.19388959
000200 25 76 1e be 68 5e 5b 3e 17 f6 76 bd bc f0 91 3e
       -0.15474756 0.21422732 -0.060293283 0.28503978
000210 77 71 71 3e a5 bc 06 be 08 8e ad 3d e6 69 69 be
       0.2357844 -0.131579 0.08474356 -0.22794303
000220 f8 5e 04 3e b6 23 c4 bd 88 c4 3a bd 39 3d 6b 3e
       0.12926853 -0.09577124 -0.045597583 0.22972573
000230 65 f9 25 3b 5b 51 b1 bd ea e5 fb 3d 40 4d 90 bb
       0.0025325653 -0.086580954 0.12299712 -0.00440374
000240 87 20 4e 3e 6b 20 79 be e6 bc 5b bd a1 89 71 be
       0.20129596 -0.24328773 -0.053646944 -0.23587658
000250 c6 a7 12 be d6 85 a4 bd 75 a7 0a be 43 76 24 be
       -0.14321813 -0.0803334 -0.13540442 -0.16060738
000260 c4 26 5e bd be e0 18 be f1 11 21 be e5 f6 0c 3c
       -0.05423619 -0.14929482 -0.157295 0.008603786
000270 9b 20 30 be 8b d3 e2 3d 33 d0 23 3e 1c 59 63 3e
       -0.17199938 0.11075505 0.1599739 0.22201961
000280 77 8b 63 3d c3 de 93 bd aa 4c 37 bd 97 a4 1c be
       0.055552926 -0.07220223 -0.044750847 -0.15297161
000290 35 5d 10 3e d8 51 f5 3d 09 5d 5a 3e 83 d9 5b bd
       0.14098056 0.11978501 0.21324553 -0.053674232
0002a0 18 15 38 be d7 6d 77 3d 39 d2 51 3e 87 55 16 bd
       -0.17976797 0.060407486 0.2049035 -0.03670266
0002b0 56 55 62 3e a1 57 04 3e 3a 10 b3 3d 25 09 b1 bd
       0.22102866 0.12924053 0.08743329 -0.08644322
0002c0 0a c9 a7 bd 89 fc 16 bd 43 9e 9c bc cc 02 4b bd
       -0.08192642 -0.03686193 -0.019118434 -0.049563214
0002d0 26 5c 73 be 79 8f 24 be 9b 71 aa bd 06 d0 4e 3e
       -0.2376562 -0.16070355 -0.0832245 0.20196542
0002e0 57 57 ec 3d e5 07 68 be 48 4f 38 be 11 f4 14 be
       0.11540096 -0.22659262 -0.17998993 -0.14546229
0002f0 29 23 6b 3e 87 d6 85 3d 01 e8 56 3e 76 64 4e be
       0.22962631 0.065350585 0.2098694 -0.2015551
000300 f7 c8 53 3e 3a 75 83 3e 4f 71 a9 3c 59 68 ec bd
       0.20682131 0.25675374 0.020683913 -0.1154334
000310 bf eb 09 3e c7 2e be bd d1 25 fb bd ec 1f 0f 3e
       0.13468836 -0.09286266 -0.12263072 0.13977021
000320 78 82 12 be d8 7f 78 3d d7 c3 9f bc b0 0d 6b 3c
       -0.14307582 0.060668796 -0.019502563 0.014346525
000330 31 10 12 3d 55 d8 94 3d c2 95 d0 bd d6 71 c3 3d
       0.035659973 0.072678246 -0.10184814 0.09543197
000340 04 d6 73 be 19 5c b5 3d f6 7c 4f be 98 fd 6b 3e
       -0.23812109 0.08855457 -0.20262513 0.23045957
000350 11 8e 63 3d b5 28 71 3d 40 74 9c 3d cb d1 2a 3d
       0.055555407 0.058876712 0.076393604 0.04170398
000360 e9 60 d6 bd 5d 98 7e be 07 02 22 3e 94 30 1c 3e
       -0.10467703 -0.2486281 0.15821086 0.15252906
000370 17 1a 24 bd 11 a2 99 3b 77 b8 bf bc 5b 9e 75 bd
       -0.040063944 0.0046885093 -0.02340339 -0.059965473
000380 bc f5 26 3e 71 cd 32 be b5 98 80 be 35 ac 34 bd
       0.16304678 -0.17461182 -0.25116506 -0.044109542
000390 2d ed 1d be 7e 1a 50 be f2 5b 2c bd e7 42 1c bd
       -0.15422507 -0.20322606 -0.042079873 -0.03814974
0003a0 bc 7a 08 3e 8a 0c 26 3e f0 8d 27 3e dd 7a 2f 3e
       0.1332807 0.16215721 0.16362739 0.17136712
0003b0 49 56 9d 3d de 94 41 bb b9 e4 21 bd 1e 60 2c be
       0.07682473 -0.0029538195 -0.039524768 -0.16833541
0003c0 86 f7 ba 3c 25 be bf bd a1 61 94 bd 10 e4 4a 3e
       0.022823106 -0.09362439 -0.07245184 0.19813561
0003d0 ed ef c7 3d 0c ad 12 3e f7 d4 40 3e c8 e4 20 be
       0.09762559 0.14323825 0.1883124 -0.15712273
0003e0 4f e9 70 3d ac 9d 28 bd d4 f6 bc 3d 8f b7 14 3e
       0.05881625 -0.041165993 0.09226766 0.14523147
0003f0 54 7b 87 bd 88 1e 2c 3e 5d 43 43 3a b0 4c 68 bd
       -0.0661532 0.16808522 0.00074486976 -0.05671376

bias f4 [16]
000000 1a b5 27 3e d8 55 46 3e a0 77 90 bd fc 3b 13 3e
       0.16377679 0.19368684 -0.07054067 0.14378351
000010 f8 26 64 bd 80 6f fa bb 0e f6 35 be a4 51 da bd
       -0.055701226 -0.0076426864 -0.17769644 -0.10660103
000020 e8 cf 06 3d 58 2c 6c bd 70 41 cd bc 40 22 76 3d
       0.03291312 -0.057659477 -0.025055617 0.060091257
000030 9c 6b cb bd 26 47 07 3e 7e ff 7a 3e ce fa 4b 3e
       -0.09932634 0.13210735 0.24511525 0.19919893

weight f4 [2, 16]
000000 14 ca a3 3e 75 f0 ad bd e2 d2 1d 3e bc 03 a3 bd
       0.3199011 -0.08493129 0.15412477 -0.07959697
000010 a8 8c bf bd 70 07 40 bc be 4c a9 3e b6 92 a1 be
       -0.09353 -0.011720523 0.33066362 -0.31557244
000020 57 9c 67 be e9 0e 7b 3e 5f b9 49 3e c0 ff a9 bd
       -0.22618233 0.24517407 0.1969962 -0.083007336
000030 0b d0 1e be bd a4 c1 bc 10 86 8d 3e 92 b3 24 3e
       -0.1550905 -0.023638124 0.27641344 0.16084126
000040 fd c1 5d be ca 7c 69 3d 7e b1 c6 be 01 5d 2d be
       -0.21656032 0.057003774 -0.3880729 -0.1693001
000050 b9 7b 51 bd aa f2 02 be c5 c9 97 be 6a 10 93 3e
       -0.05114338 -0.12787881 -0.29646125 0.2872346
000060 a4 5b 5f 3e b6 b9 c7 bd 90 96 0f be bd b3 ba 3c
       0.21812302 -0.097522184 -0.14022279 0.022790784
000070 76 62 9b 3e be de 6c bd cf 5b 9c bd 85 25 c7 3d
       0.30348557 -0.05782961 -0.076346986 0.09723953

bias f4 [2]
000000 18 23 80 3e 9c 8b 50 3d
       0.25026774 0.050914392

weight f4 [16]
000000 27 d1 80 3f 37 89 7c 3f 51 10 82 3f ab 1e 7b 3f
       1.0063828 0.98646873 1.0161229 0.9809367
000010 de 25 80 3f 2a 68 7f 3f 02 33 7c 3f d5 77 80 3f
       1.0011556 0.99768317 0.9851533 1.003657
000020 da 0c 80 3f d7 7e 80 3f 07 66 7d 3f ce cc 80 3f
       1.0003922 1.0038708 0.98983806 1.0062501
000030 42 c8 80 3f 37 42 82 3f c4 59 80 3f 73 73 7e 3f
       1.0061114 1.0176457 1.0027394 0.9939491

bias f4 [16]
000000 f1 c3 27 bb 00 f6 05 bc d8 a4 b5 39 6b 56 72 bb
       -0.0025598968 -0.008176327 0.00034645828 -0.0036977779
000010 5b d7 c5 bc 2e 74 81 bc 13 85 b8 3c 21 01 a7 bb
       -0.024150541 -0.01580247 0.022524392 -0.00509657
000020 fb 0a 33 bb bd 95 65 3b d1 49 d5 3b 63 c3 73 3c
       -0.0027319777 0.0035031878 0.0065090437 0.014878127
000030 8c 52 df 3a 74 9a 0d 3a 3d 69 8a bc aa 11 80 3a
       0.0017038151 0.00054017385 -0.016895885 0.0009770889

running_mean f4 [16]
000000 c2 65 5f be 4b 0a 89 3d 20 1d eb bc b4 48 a6 be
       -0.21816161 0.06691416 -0.028700411 -0.32477343
000010 32 5b d6 3e 59 f9 6b bd 19 92 a3 3c 88 94 24 3d
       0.41866452 -0.057610843 0.019967126 0.040180713
000020 4d 24 03 bd 41 00 b0 3d cd 03 51 3e ce bc 49 bd
       -0.03201704 0.085937984 0.20411606 -0.049252324
000030 7a e6 12 bd 2c bb 65 3d 5d e8 f0 bd ee 74 b2 3d
       -0.03586433 0.056086704 -0.1176307 0.08713709

running_var f4 [16]
000000 67 87 e8 3a 0d 61 d7 39 9a 47 bb 3a 86 94 b1 3a
       0.0017740548 0.00041080304 0.0014288307 0.0013548292
000010 e4 28 a8 3a 1f ca 79 3b ed b5 cd 39 1e b8 9b 38
       0.0012829569 0.0038114858 0.00039236192 7.4252705e-05
000020 5a 3d 53 39 9e e9 a1 39 1a ab 08 3a 26 c2 6d 39
       0.00020145383 0.0003088237 0.00052134844 0.00022674407
000030 8e 66 a7 39 6a dc a7 39 f7 90 da 39 b5 ec 76 39
       0.0003192913 0.00032016943 0.00041688207 0.00023548568

weight f4 [16]
000000 9c 82 77 3f f5 34 87 3f d7 2e 7f 3f 01 21 81 3f
       0.9668367 1.0563036 0.99680847 1.0088197
000010 9e 73 7f 3f 45 04 7e 3f 5b c7 80 3f ee 2a 81 3f
       0.9978579 0.99225265 1.0060838 1.0091226
000020 e3 4f 7e 3f 95 dc 7e 3f 36 a6 7b 3f 6d 9c 7d 3f
       0.9934065 0.9955533 0.9830049 0.9906681
000030 7d 87 80 3f 75 5b 7e 3f 5d 31 81 3f de 1b 7e 3f
       1.0041348 0.993583 1.009319 0.9926127

bias f4 [16]
000000 f2 ac be bc 73 fd 96 3c fd f1 fa 3a 0a 11 3b 3c
       -0.023275826 0.0184314 0.0019145604 0.011417637
000010 cc f3 48 3b 12 66 23 3b dd b8 95 3c 45 3d 55 3c
       0.0030662892 0.0024932665 0.018276626 0.013015096
000020 eb a7 a6 bc fe ce 17 bb e4 7f 2a ba a5 17 ff bb
       -0.020343741 -0.0023164148 -0.00065040425 -0.007784801
000030 f3 33 83 3b d8 12 ae bb 5e 8c 1c bb 15 9d 6d bc
       0.0040039956 -0.005312305 -0.0023887376 -0.014502783

running_mean f4 [16]
000000 43 a9 88 be b6 0e a6 bd 9d 75 92 bd 8a d1 bc 3d
       -0.26691636 -0.08108275 -0.07151339 0.09219654
000010 1f 3b 98 bd 40 b8 2e 3e be c5 e0 be 32 a5 cc 3d
       -0.074331515 0.17062473 -0.43900865 0.09992446
000020 ab f6 6b 3d a5 53 90 3d ce b8 b2 be 35 3e ab bd
       0.057608288 0.07047204 -0.3490662 -0.083614744
000030 e1 43 e5 be 2e da 80 3e aa df 8b 3c 3f f8 54 be
       -0.4477835 0.25166458 0.017074425 -0.20797823

running_var f4 [16]
000000 18 cf ba 3d e5 7c 2a 3c e7 6d 29 3e f4 ec 93 3d
       0.09121531 0.010405754 0.1654583 0.072229296
000010 b2 b9 0d 3d 92 aa 86 3d 4c 5d 4f 3d c6 3d 52 3e
       0.03460092 0.065755025 0.050626084 0.20531377
000020 82 34 04 3d 7c 19 36 3e 77 b4 aa 3c 19 b7 dc 3d
       0.032276638 0.17783159 0.020838005 0.107771106
000030 cd 79 c2 3c bf 7b 02 3e a6 44 d1 3d 69 ab 67 3e
       0.02373972 0.12742518 0.10218172 0.22623982

weight f4 [16]
000000 cb 19 85 3f 15 40 80 3f 4a f0 86 3f 2e 0b 80 3f
       1.0398496 1.0019556 1.054208 1.0003412
000010 34 7b 7f 3f b7 67 80 3f f5 7d 89 3f 78 56 85 3f
       0.9979737 1.0031651 1.0741564 1.0417013
000020 3e 22 84 3f cc 4b 83 3f 68 43 82 3f a3 35 80 3f
       1.032295 1.0257506 1.0176821 1.0016369
000030 55 74 84 3f 08 08 80 3f e6 00 83 3f be 92 7f 3f
       1.0348002 1.0002451 1.0234649 0.99833286

bias f4 [16]
000000 43 1f 9d 3d 0a 72 27 bb 44 3a 87 3d 2e ae 89 3b
       0.07671978 -0.002555015 0.0660291 0.004201672
000010 37 74 be bb d9 d2 22 3b 1d f6 a2 3d 54 0c 00 3c
       -0.0058121937 0.0024844913 0.07957099 0.007815439
000020 b5 a5 b4 3b 07 7d c3 3c ad a7 9c 3c 2f 07 da ba
       0.005512918 0.023863329 0.019122923 -0.0016634221
000030 71 dd 04 bb 61 4d b8 39 3b e0 23 3d 5c ba fe 3a
       -0.002027359 0.00035152867 0.040008765 0.0019434202

running_mean f4 [16]
000000 e1 9d 84 be 34 99 88 3e f3 3a bf bd e7 80 8f 3e
       -0.25901702 0.26679385 -0.093374155 0.28028032
000010 3c f2 a6 3d 87 41 54 3e 77 5f fa bd 19 b5 60 be
       0.08151671 0.20728122 -0.1222524 -0.21944083
000020 a7 8c 82 3e f8 2b e0 be 63 7a 61 3e d0 ff 21 be
       0.25497934 -0.43783545 0.22019343 -0.15820241
000030 4b a0 a5 3d 9b a5 0a 3e 6e 94 19 3e e5 55 e6 3e
       0.08087214 0.13539736 0.14998028 0.44987407

running_var f4 [16]
000000 ae 13 b4 3d 75 55 52 3d a4 69 e5 3d c3 9f 1b 3d
       0.08792816 0.05135103 0.1120179 0.037994158
000010 75 89 86 3d 3a 05 31 3d 25 ec e1 3c bd fd 05 3e
       0.065691866 0.043217875 0.027578423 0.13085075
000020 e6 42 eb 3c e8 11 19 3d 73 2f 5c 3d 56 18 64 3e
       0.028718423 0.037370592 0.05375619 0.22274908
000030 76 df 9a 3d ff e5 79 3c d7 2d 1d 3d 90 0c ec 3c
       0.07562153 0.015252589 0.038373794 0.028814584

weight_ih_l0 f4 [32, 16]
000000 fe 7f 29 be c0 4c 0e 3e b8 67 66 3d 40 9f 50 3d
       -0.16552731 0.13896465 0.056251258 0.050933123
000010 f4 fb 9b be a7 83 a7 3e be 75 21 3e 58 d0 29 3d
       -0.30465662 0.3271763 0.15767571 0.041458458
000020 40 1c 0b 3e 74 d4 b3 bd 28 f7 81 be 04 54 bd bd
       0.13584995 -0.087807566 -0.25383878 -0.0924454
000030 0f 07 a2 be 09 8e 9c 3e 1a f5 1a 3e 34 03 be 3d
       -0.3164601 0.30577114 0.15132561 0.09277955
000040 b0 df 74 be 06 d2 6b be 66 7c 4e 3e 5a a9 92 be
       -0.23913455 -0.23029336 0.20164642 -0.2864483
000050 44 71 8c 3d 95 6e 87 3e 3f d5 9d be 72 93 7f 3e
       0.06857541 0.26451555 -0.30826756 0.2495859
000060 0a 3a 95 be 20 a1 8c bd 26 00 7a 3e a5 3c 86 3e
       -0.29145843 -0.0686667 0.24414119 0.26218143
000070 4f 66 a4 3e 89 c6 95 3e 04 99 ae be 40 b0 72 3d
       0.32109305 0.29253033 -0.34101117 0.059250116
000080 37 c5 a1 be d6 17 4e 3e 28 5e d6 3d a9 7c 8b 3e
       -0.31595775 0.2012628 0.10467178 0.27243546
000090 8c e0 a9 3d c6 32 78 3e 80 31 7e bc 74 62 91 be
       0.08294782 0.24238119 -0.015514731 -0.28395426
0000a0 ac 1e 6e be 80 07 a3 bb 21 93 a2 be e3 b9 99 3e
       -0.23253888 -0.0049752593 -0.31752875 0.30024633
0000b0 d1 5c 59 be f3 59 89 be 0b 4a b0 3e d2 20 68 be
       -0.21226813 -0.26826438 0.3443149 -0.2266877
0000c0 92 9b 21 be c0 59 c3 3b 68 e6 e6 3d 62 ca 01 be
       -0.15782002 0.005961627 0.11274415 -0.12674859
0000d0 6e ca 41 3e 8b c4 67 be b0 94 8c 3d 21 19 b2 be
       0.18924877 -0.22633569 0.068642974 -0.34784797
0000e0 a9 88 a2 be de 2b 00 3e 6e 09 2e 3e 09 ab 21 be
       -0.31744888 0.12516734 0.16995785 -0.15787901
0000f0 08 23 fe 3d 44 5b bd bd f6 3e 4a 3e 08 22 1e 3d
       0.124090254 -0.09245923 0.1975058 0.038606673
000100 68 fa 9f bd 08 92 89 3d bd cc ab be e6 cc 4a 3e
       -0.07811433 0.067173064 -0.3355464 0.19804725
000110 cb 50 a7 3e 85 65 9a 3e 40 92 50 be a0 c5 11 be
       0.32678828 0.30155578 -0.2036829 -0.14235544
000120 ea 9f 1e be f0 2c 5c 3d cc 85 7d be fc ee 87 be
       -0.1549069 0.053753793 -0.2475807 -0.26549518
000130 11 d1 0c be 29 74 9e 3e 9c be be 3d e7 eb a3 be
       -0.13751628 0.30947998 0.093136996 -0.32015917
000140 67 e9 28 be 64 68 8f be d8 d2 39 bd 20 c9 37 3c
       -0.16495286 -0.2800933 -0.045367092 0.0112173855
000150 a8 c2 71 be 58 2f 8d be 3c c2 8e bd 90 fa a8 3c
       -0.23609412 -0.27575183 -0.06970641 0.02062729
000160 37 11 85 3e f0 62 03 3e cc d4 52 be 34 14 a7 be
       0.25989696 0.1283071 -0.20588988 -0.326326
000170 a4 31 8d 3d 60 c3 4f bd 92 4d 54 3e 6a 77 7a be
       0.06894234 -0.050723433 0.20732716 -0.24459615
000180 90 8e 8c bc f8 09 84 be eb 8f 35 be c4 9a 55 be
       -0.017157823 -0.25788856 -0.17730682 -0.2085982
000190 58 cb 96 bd b0 a6 f2 bc ad 47 a8 3e 7b 70 a0 3e
       -0.073630035 -0.029620498 0.32867184 0.31335816
0001a0 bf 01 8d 3e 74 1c ad 3d 00 36 b7 3b e1 54 ac 3e
       0.27540395 0.08452693 0.005591154 0.33658507
0001b0 89 e4 79 be 1f 36 a7 be f3 a0 43 be fd 97 87 3e
       -0.24403585 -0.3265848 -0.19104366 0.26483145
0001c0 03 3b b1 3e 7f c6 14 be 11 50 6a be 77 d0 a0 be
       0.34615335 -0.14528845 -0.22882105 -0.31409046
0001d0 b6 c0 27 3e d7 ce 11 be f7 4d 87 3e 69 02 00 be
       0.16382107 -0.1423906 0.2642667 -0.1250092
0001e0 4b 9c a5 3e 62 68 69 3e 3a 7d 6e 3e 86 91 40 3e
       0.32345805 0.22793725 0.23289958 0.18805513
0001f0 ec 75 91 be 60 b3 46 3d ed fd 57 be 5c 82 de bd
       -0.2841028 0.04851091 -0.21092959 -0.10864708
000200 8a 3d 60 3e ae f8 37 be b2 4e 64 3e 10 71 95 3c
       0.21898475 -0.17965958 0.22295645 0.018242389
000210 2d aa 2b be 95 d0 2f be 45 f8 af be cc 5e f8 3d
       -0.16764136 -0.17169411 -0.34369102 0.12127456
000220 60 72 5e 3c 0b 2b a1 3e 50 7d 02 3e cc df e0 3d
       0.013577074 0.31478152 0.12743115 0.10980186
000230 40 db 99 bc 5a 32 29 3e d8 db 56 bd f2 26 11 3e
       -0.018781304 0.16523114 -0.052455753 0.14175013
000240 56 a2 24 be ce ee 64 3e 40 8d c6 3d 36 40 3f 3e
       -0.16077551 0.22356722 0.0969491 0.18676838
000250 e0 98 c3 3c 7a d4 2b 3e 25 98 a3 3e 00 da 5e 3d
       0.023876607 0.16780272 0.31952015 0.05440712
000260 a2 b8 7b 3e 42 bd a5 be 90 2e e5 bc 52 53 9d be
       0.2458215 -0.32370955 -0.027976304 -0.3072763
000270 a0 16 cf 3c 1c fa 87 3d 9c 76 cc 3d 00 1b 1a be
       0.025279343 0.066395015 0.099835604 -0.15049362
000280 36 78 29 3e b3 55 18 be 6c 33 b8 bd f7 c1 87 3e
       0.16549763 -0.14876442 -0.08994183 0.2651517
000290 43 97 a6 be 58 f3 92 3d a8 be 9b be be 94 1b 3e
       -0.3253728 0.071753204 -0.30418897 0.1519346
0002a0 59 29 97 be bc ed a9 be 38 b3 c9 bd 8d c6 90 3e
       -0.29523733 -0.3318919 -0.098486364 0.28276482
0002b0 7a eb 36 3e 3e ae 68 3e 00 b0 a8 bd 25 e7 9f 3e
       0.17863265 0.22722718 -0.08236694 0.31231037
0002c0 2e 14 25 be 30 be ca bc 0b 3a a6 be 90 ec 91 3c
       -0.16120979 -0.024748892 -0.32466158 0.017812997
0002d0 80 01 a6 3d b5 bd ad be 6d 2d 98 3e 54 3a 88 3d
       0.08105755 -0.33933797 0.29722157 0.0665175
0002e0 3f a2 ac 3e 5b da 1b be c0 0f 87 3c 2c 62 e8 bd
       0.33717534 -0.15220015 0.016487002 -0.1134685
0002f0 7d 0d 99 3e a7 62 4a be 9e 5e 50 3e 5e 3b 7e be
       0.29893103 -0.19764195 0.20348594 -0.24827334
000300 b1 07 88 3e 50 8b a8 be 52 fb 33 be cf 65 23 be
       0.26568368 -0.32918787 -0.1757634 -0.15956806
000310 68 e6 75 bd 40 ac 8f bb 34 fe e9 3d 8f 55 a2 3e
       -0.060034186 -0.0043845475 0.114254385 0.317059
000320 be 46 55 3e 5a 92 2e be 2f 18 aa 3e c8 40 55 bd
       0.20827767 -0.17048016 0.33221576 -0.052063733
000330 17 e2 49 be ea 53 07 3e d8 5c 7c bd 85 c1 ac 3e
       -0.19715153 0.13215604 -0.06161198 0.33741394
000340 28 8c 21 3d c6 9d 6f 3e 34 70 ba 3d 66 99 6c be
       0.039440304 0.2340003 0.09103432 -0.23105392
000350 d8 64 98 3d b0 82 51 be 8c e4 c1 bd ac 40 e9 bd
       0.074411094 -0.2046001 -0.0946742 -0.11389288
000360 4a 6e 8f be 5e 1c 0c 3e 8b 17 80 3e e2 62 b2 be
       -0.2801383 0.13682696 0.25017962 -0.34841067
000370 5e 11 45 3e dc ec 8e be 19 28 b1 be 44 b5 f9 3d
       0.19244906 -0.27915084 -0.34600905 0.12192777
000380 60 6b 00 bc 76 f2 5d be 39 14 a2 3e 50 55 ec 3c
       -0.0078381 -0.21674523 0.31656054 0.028849274
000390 dc 14 63 be e2 14 26 3e e0 fe cc 3c b0 ca 67 bd
       -0.22175926 0.16218904 0.025023878 -0.056589782
0003a0 bf dd 80 be b0 1d d2 bc 0e 83 51 3e b6 de 30 be
       -0.2516918 -0.025648922 0.2046015 -0.17272457
0003b0 b6 c0 26 3e 32 e5 b1 be c4 fb 08 be 8a ca e3 bd
       0.16284451 -0.34745175 -0.13377291 -0.11122616
0003c0 62 3f 9f be c2 64 01 3e c2 b9 8d be 6e 88 51 3e
       -0.31103045 0.12636092 -0.27680784 0.204622
0003d0 80 40 94 3d 80 cc 99 3b ea 01 41 be 42 6a f6 bd
       0.07238865 0.0046935678 -0.18848386 -0.12031986
0003e0 c8 c8 af 3d 0b 08 ae 3e 1d 69 2d be de 54 76 be
       0.08583218 0.3399051 -0.16934629 -0.24055812
0003f0 ce 97 20 be e7 07 82 be 68 a5 3e bd b8 06 81 be
       -0.15682909 -0.25396654 -0.046544462 -0.25200438

weight_hh_l0 f4 [32, 8]
000000 a0 28 97 bc a0 40 ad 3c 60 4f 61 3c cc 85 8d be
       -0.018451989 0.02114898 0.013751835 -0.2764114
000010 c8 03 47 be a7 ea 83 3e 00 6a 39 3c d9 24 24 be
       -0.19435036 0.25764963 0.011316776 -0.16029681
000020 36 c5 74 3e 9c e6 d6 bd 20 42 13 be 06 07 7d 3e
       0.23903355 -0.10493204 -0.14380693 0.2470971
000030 c3 d0 8e be b6 61 2d be f1 fe 88 3e c0 99 0d bd
       -0.27893648 -0.16931805 0.26757005 -0.034570456
000040 ec 4a 15 be ab 34 96 3e 30 5d 5c 3d 2c 14 aa be
       -0.14579362 0.29337057 0.053799808 -0.33218515
000050 e8 db 85 be c4 8d b7 bd 70 f2 9e bc aa 4a 88 be
       -0.26144338 -0.089625865 -0.019402713 -0.26619464
000060 54 6d 08 be a8 c5 f4 3d 3a d0 a8 be 66 a3 a9 be
       -0.13322955 0.119517624 -0.32971364 -0.33132476
000070 88 40 bc 3d 0c 32 8a 3d fa cf ae be 7b 6d a8 be
       0.09191996 0.06747827 -0.3414305 -0.32896027
000080 11 68 96 3e 05 a8 b4 3e ec 3a 1e be 75 51 b4 3e
       0.2937627 0.3528444 -0.15452164 0.35218397
000090 2e 0c 7a 3e 2b e8 a0 3e 38 c9 1b be 5c 31 b1 bd
       0.24418709 0.3142713 -0.15213478 -0.08651993
0000a0 be 72 55 3e 8a 49 06 3e b3 79 90 be f6 aa 58 3e
       0.20844552 0.1311399 -0.2821785 0.21158966
0000b0 5d 86 b0 3e 87 ea 65 be 4b 11 a8 be e4 6e ac be
       0.3447751 -0.22452746 -0.32825693 -0.33678353
0000c0 56 0d 65 be 75 6e 1f be 33 99 4c be 0e 8b 9e be
       -0.22368369 -0.1556948 -0.19980316 -0.30965465
0000d0 2a 1d 62 3e 9d 0b b1 3e 23 8d 97 3e 6e b5 62 3e
       0.22081438 0.34579173 0.29599866 0.22139522
0000e0 0a be 20 3e b4 ba 0e be 98 13 92 be 57 d4 55 be
       0.15697494 -0.13938409 -0.28530574 -0.20881782
0000f0 8a ec 23 3e ac 6a 9e 3d 20 e0 38 3d b4 b9 5b be
       0.16008201 0.0773519 0.045135617 -0.21457559
000100 97 54 2a be 59 af 18 be 50 d3 37 bd b8 a1 88 bd
       -0.16633831 -0.1491064 -0.044879258 -0.066714704
000110 98 24 19 3d 80 20 f1 bd 18 17 24 bd 33 42 66 be
       0.037388414 -0.11773777 -0.040061086 -0.2248619
000120 7a e7 32 3e c8 6f 96 be a4 2a 84 3d 31 37 ac be
       0.17471114 -0.29382157 0.064534456 -0.33635858
000130 f3 76 4e be 67 07 af 3e 7c 7d 87 bd 58 04 85 bd
       -0.20162563 0.34185335 -0.06615731 -0.06494969
000140 26 c5 3a 3e a4 29 9c be fc cc a6 bd 00 71 3a bc
       0.18239269 -0.3050052 -0.081445664 -0.01137948
000150 18 fd 22 3d 68 d4 6f bd 67 61 7f be 78 e8 a5 be
       0.03979215 -0.058552176 -0.249395 -0.32403922
000160 80 be 79 3b e5 29 97 3e 20 85 22 be 90 16 37 3d
       0.0038107932 0.2952415 -0.15871096 0.04469925
000170 f6 20 66 3e c2 dd b0 be 73 30 a0 3e 97 e3 98 3e
       0.22473511 -0.34544188 0.31286964 0.29861137
000180 cc 60 1e be 05 c9 9d 3e 1a 4f 77 3e e3 5f 96 3e
       -0.15466613 0.30817428 0.24151269 0.2937003
000190 21 c5 9c 3e fc 0d a6 3d 42 ef 46 3e 6c da 41 be
       0.30619147 0.08108136 0.19427207 -0.18930978
0001a0 58 34 73 3d d9 96 ad 3e d6 82 f9 bd a0 a2 aa 3d
       0.05937609 0.3390415 -0.12183158 0.083317995
0001b0 aa fa 38 be 50 d1 05 3e d8 c1 eb 3d 7f aa 88 3e
       -0.18064371 0.13068128 0.11511582 0.26692578
0001c0 00 7f ff 3a 8e db 2c 3e 4e 7d 5b 3e b0 33 69 3d
       0.0019492805 0.16880628 0.21434519 0.05693406
0001d0 1c c4 aa be 15 58 80 3e 50 d2 67 be fa b4 27 3e
       -0.33352745 0.250672 -0.22638822 0.16377631
0001e0 a8 6f 87 be 04 e9 d2 3d 38 81 87 bd d5 1b a2 be
       -0.26452374 0.102983505 -0.066164434 -0.3166186
0001f0 82 50 25 3e a8 7a a8 bd f4 a4 16 be 16 fa e0 bd
       0.16143993 -0.0822652 -0.14711362 -0.109852
000200 ae 29 76 3e 72 bb 54 3e b8 40 c5 3d de 7c 17 3e
       0.24039337 0.2077463 0.09631485 0.14793727
000210 86 f5 39 3e 36 c7 15 3e a9 22 9a 3e ca ff 59 3e
       0.18160066 0.14626774 0.3010457 0.21288982
000220 b3 4d 3a be e8 90 5c bd 4a db 28 3e c9 05 90 3e
       -0.18193702 -0.05384913 0.16489902 0.28129414
000230 33 6b 96 be b2 8f 33 be 9f 8b 33 be 25 f9 aa 3e
       -0.29378662 -0.17535284 -0.1753373 0.33393207
000240 29 ac b1 3e 77 d3 21 be 56 c3 df bd 40 66 cd 3b
       0.3470166 -0.15803324 -0.10925929 0.0062682927
000250 b0 99 a9 3c cc 5d ce bd 13 10 84 be bc ad 40 be
       0.020703167 -0.10076484 -0.25793514 -0.18816274
000260 50 ab f1 bc 10 c1 1c 3d 20 48 5e 3c f5 3a a6 be
       -0.029500633 0.038270056 0.013567001 -0.32466856
000270 37 48 a0 3e 51 e1 52 be 0c 4b b1 bd 51 eb a7 3e
       0.31305096 -0.20593764 -0.08656892 0.3279672
000280 80 36 17 3b 6c b3 90 be ee 90 50 3e ba 34 08 be
       0.0023073256 -0.28261888 0.20367786 -0.13301364
000290 6b 7b af 3e c8 17 d2 bd 55 4f 87 be cb a9 86 be
       0.34273848 -0.10258442 -0.26427713 -0.26301417
0002a0 00 02 fa 3a 58 41 69 bd 87 ee 8c 3e 50 6a ad 3c
       0.0019074082 -0.056947082 0.27525732 0.021168858
0002b0 df 9f 59 be 08 39 22 3d 30 e4 85 be 58 34 58 3d
       -0.21252392 0.03960517 -0.26150656 0.052784294
0002c0 08 47 bf 3d 5b aa aa be 7c a6 77 be 1d d7 35 be
       0.0933972 -0.33333096 -0.24184602 -0.1775784
0002d0 84 2d fd bd 50 8d 83 bd 16 d3 17 3e 48 e1 8e be
       -0.12362197 -0.064234376 0.14826617 -0.2790625
0002e0 0e 3f 3b 3e 4c f6 7a be 75 f5 9e 3e a0 a0 4e be
       0.18285772 -0.24508017 0.31046644 -0.20178461
0002f0 14 7b 8a be 75 bc 81 3e 31 3d 93 3e 16 52 f5 bd
       -0.27047026 0.25339094 0.28757623 -0.11978547
000300 6b b6 9e 3e 00 18 23 3d fe 7b 03 3e 30 f1 a9 bc
       0.3099855 0.03981781 0.12840268 -0.02074489
000310 6c cd c5 bd 38 f4 02 be 34 34 9b be bb 1d 84 3e
       -0.09658322 -0.12788475 -0.30313265 0.25803933
000320 2e cc 3f 3e bd 75 a4 3e a3 f3 b1 be b7 d9 b2 3e
       0.18730232 0.32121077 -0.34756193 0.34931728
000330 0e 76 71 3e 14 6f c5 3d 45 64 1b be aa 78 7f 3e
       0.2358019 0.09640327 -0.15174969 0.24948373
000340 52 28 68 3e 8d ca 9b 3e 22 75 95 be d8 1c 5c 3d
       0.22671631 0.3042797 -0.29190928 0.053738445
000350 58 5f 02 3e 16 12 b2 be f3 70 a9 3e 8e fe 61 3e
       0.12731683 -0.34779423 0.33093986 0.22069761
000360 21 5e 91 be 8a 68 9b be c0 50 6c 3c 0f 31 91 3e
       -0.28392127 -0.30353194 0.014423549 0.2835774
000370 b8 42 d2 3d 90 a2 4b 3d 40 9d bb bc 5e dc b3 be
       0.10266632 0.04971558 -0.022902131 -0.35129064
000380 a2 e8 59 3e 2e eb 66 3e 05 90 7e be a0 62 85 bd
       0.21280149 0.22550651 -0.24859627 -0.06512952
000390 17 fc af 3e 6c c3 0a be c4 91 78 be 46 1b 4f 3e
       0.34372017 -0.1355111 -0.24274355 0.20225248
0003a0 36 3d 27 3e 6b ee 9b 3e 78 e5 1b be 8c 0e b0 3d
       0.16331944 0.30455336 -0.15224254 0.085965246
0003b0 f8 4f ae 3d 23 49 93 3e a2 e1 4a 3e 74 24 aa 3d
       0.085113466 0.28766736 0.19812635 0.08307734
0003c0 e8 be 4b bd b4 2a 81 bd c4 60 43 be 0e 48 18 3e
       -0.04974261 -0.06306973 -0.19079882 0.14871237
0003d0 0b 45 9a 3e 66 09 38 be 84 66 77 be 1d c9 86 3e
       0.301308 -0.17972335 -0.241602 0.26325312
0003e0 a8 93 42 3d 2d a9 2a be fa 71 6a 3e a5 7d 93 be
       0.047504097 -0.16666098 0.22895041 -0.28806797
0003f0 e6 e1 31 be c6 ac e8 bd 20 75 38 bc 74 5a 9a 3d
       -0.1737133 -0.11361079 -0.0112583935 0.07536784

bias_ih_l0 f4 [32]
000000 ba 26 2d 3e 20 d5 fc bd 48 66 0c bd 1c 09 3d be
       0.16909304 -0.12345338 -0.03427723 -0.18460506
000010 b5 0b 6e be 08 fc 9d 3d 53 7f 85 3e e6 34 9c 3e
       -0.23246653 0.07714087 0.26073703 0.30509108
000020 32 47 8d be 12 52 2b 3e a6 64 df bd 30 56 90 bc
       -0.2759338 0.16730526 -0.10907869 -0.017619222
000030 80 c1 71 bc a1 5a 9c 3e b3 ae 97 3e da 92 92 be
       -0.014755607 0.30537894 0.29625472 -0.28627664
000040 19 08 9f 3d cd c1 53 3e 18 44 c2 3d 11 36 2c bc
       0.077652164 0.20679398 0.09485644 -0.010510937
000050 2b f3 2a be c5 70 7f be 57 3f b2 be a6 5d e2 bb
       -0.16694324 -0.24945362 -0.3481395 -0.0069081364
000060 4e ac 0b be 3b e2 aa 3d 06 0e 19 be 86 44 96 3e
       -0.13639948 0.08343931 -0.14946756 0.29349154
000070 4a 6f 7f be 47 a0 a0 3e d2 80 0f be 5b cb 5f 3d
       -0.24944797 0.31372282 -0.14013985 0.054637294

bias_hh_l0 f4 [32]
000000 c0 bf 04 be 92 97 18 3e 13 db 8e 3e 2b 27 a9 3e
       -0.12963772 0.1490157 0.27901515 0.33037695
000010 1d be 7a be fa 88 78 3e 2d 7d 6f 3e 96 8c 94 be
       -0.24486585 0.24271002 0.23387595 -0.2901351
000020 e6 55 12 3e cc fc 8b 3d 06 b6 46 3e 0f 9a 9e 3e
       0.1429058 0.068353266 0.19405374 0.30976912
000030 c0 82 04 3c c8 03 06 be cf 2c 23 be d8 04 3b 3d
       0.008087814 -0.1308738 -0.15935062 0.045658916
000040 b4 7f 50 bd 9a a1 81 be 01 92 21 3c 3c ed 4c 3e
       -0.050903037 -0.25318605 0.00986147 0.20012373
000050 cc 5a 3f 3c 62 9a 63 3e a2 eb 08 be d5 ef 8d 3e
       0.0116793625 0.22226861 -0.13371137 0.2772204
000060 ee 88 ac 3d 8d 57 f3 bd 46 8f 2e 3e d7 db 31 3e
       0.08424555 -0.11881933 0.17046842 0.17369018
000070 8b 39 1b be d8 b4 83 bd 19 e5 3a 3e 7e 88 9f be
       -0.1515867 -0.064309776 0.18251456 -0.31158823
